models/forecast_tds_lstm_pt.pth (torch, 80897 bytes, 7 tensors)

lstm.weight_ih_l0 f4 [256, 2]
0	0x3c833758	0.0160176
1	0x3dd2dd67	0.102961354
2	0x3d45486c	0.04816477
3	0x3c1608da	0.009157384
4	0x3d76fd00	0.060299873
5	0x3d87ef3d	0.06637428
6	0x3d979266	0.0740097
7	0x3dc2286a	0.094803646
8	0xbdc77790	-0.097396016
9	0x3d958a81	0.07301808
10	0x3d3967a0	0.04526484
11	0x3d6a5457	0.05720934
12	0xbd81c78d	-0.063368894
13	0x3c21c861	0.009874434
14	0xbdb83f23	-0.089964174
15	0x3df31587	0.118693404
16	0x3cc42be0	0.023946702
17	0x3dde788b	0.108628355
18	0x3be1e9fd	0.0068943487
19	0xbda36c78	-0.07979673
20	0x3db31d38	0.087458074
21	0x3dd3e142	0.10345699
22	0xbda15107	-0.07876783
23	0x3b28a3d7	0.0025732422
24	0xbd4f737a	-0.050647236
25	0xbd89e9d8	-0.06734055
26	0x3ccea006	0.02522279
27	0xbdf507cf	-0.1196438
28	0x3d7bab5b	0.061442714
29	0xbd9ed481	-0.07755376
30	0x3c573a94	0.013136525
31	0xbcb2ece6	-0.021841478
32	0x3d41e7b4	0.04734011
33	0x3de35780	0.11100674
34	0xbd9f4580	-0.07776928
35	0xbc60227c	-0.013680097
36	0xbd3765a3	-0.044774663
37	0xbe0b5603	-0.1360703
38	0xbdcc1a30	-0.09965932
39	0xbd2d652a	-0.042332806
40	0xbc0f2267	-0.0087362295
41	0x3e08f0e9	0.1337315
42	0x3ce18c9f	0.027532874
43	0x3dc813d4	0.09769407
44	0xbdc966bf	-0.098340504
45	0xbd7727e0	-0.060340762
46	0x3cf2794a	0.02959885
47	0xbda0c538	-0.078501165
48	0x3da32733	0.07966461
49	0x3ce425f6	0.027850132
50	0xbe0b56e4	-0.13607365
51	0xbe075575	-0.13216193
52	0xbba30707	-0.004975203
53	0x3cc15f1b	0.02360492
54	0xbcabb1ab	-0.020958742
55	0xbd5f5c37	-0.054531302
56	0x3da2e672	0.0795411
57	0xba709a15	-0.00091782334
58	0xbd470845	-0.04859187
59	0x3df8e824	0.12153652
60	0xbd5cd8c6	-0.05391767
61	0xbd6b1e6f	-0.05740207
62	0x3b9b72aa	0.0047438936
63	0xbb214916	-0.0024610213
64	0xbc823fd3	-0.015899574
65	0xbd6210ca	-0.055191793
66	0x3dad4578	0.08460516
67	0x3c9695ba	0.018381942
68	0x3da52d5a	0.08065291
69	0x3cf19819	0.029491471
70	0x3d87c540	0.06629419
71	0xbdcd464a	-0.10023172
72	0x3d56c99d	0.052438367
73	0x3d19ed75	0.037579972
74	0x3d4cdc2c	0.05001466
75	0xbd885638	-0.0665707
76	0xbbc99eae	-0.0061529493
77	0xbd87976e	-0.0662068
78	0xbd02911f	-0.03187668
79	0xba611980	-0.00085868686
80	0x3c17a0bc	0.009254631
81	0x3db2a4c8	0.08722836
82	0x3e09770c	0.13424319
83	0xbc88f24f	-0.016717104
84	0x3de29cc4	0.11065057
85	0x3d765308	0.06013778
86	0xbdfc71bf	-0.12326383
87	0x3dbcaef1	0.09213055
88	0xbdbee869	-0.093216725
89	0xbd15bc6f	-0.036556657
90	0xbd054407	-0.03253558
91	0x3c92c37e	0.017915484
92	0xbe0e955b	-0.13924162
93	0xbe089566	-0.13338241
94	0xbdb4c1e9	-0.08826048
95	0xbd2e32a9	-0.042528782
96	0xbc4575da	-0.012052024
97	0x3d8c9550	0.068644166
98	0xbdbc5af3	-0.09197035
99	0x3d29bcb3	0.041439723
100	0x3dbfa9a7	0.093585305
101	0x3d1d9b03	0.03847791
102	0x3c95b058	0.018272564
103	0xbdfa2472	-0.12213983
104	0x3d8d25bd	0.06891964
105	0xbd0bac99	-0.03410015
106	0x3d05b8cb	0.032646935
107	0xbdab4b5f	-0.08363985
108	0xbd160c9f	-0.03663313
109	0x3d75159f	0.059835073
110	0xbdb1508c	-0.08657941
111	0xbdc5d475	-0.096596636
112	0xbd023bfd	-0.03179549
113	0x3d4c7763	0.049918544
114	0xbd9497d5	-0.07255522
115	0x3d07bac6	0.033137105
116	0xbd770770	-0.060309827
117	0x3c78a78a	0.015176663
118	0x3b0a6cae	0.0021121907
119	0x3d91e68e	0.07124053
120	0xbd6f784d	-0.058464337
121	0xbdd4d1a6	-0.1039155
122	0x3d02e2b9	0.0319545
123	0x3dbe18f3	0.092821024
124	0xbd2fa61e	-0.04288303
125	0x3d6e2bc8	0.05814722
126	0xbe0b8341	-0.13624288
127	0x3d380a94	0.044931963
128	0x3d992f84	0.07479766
129	0xbdcc80dd	-0.09985516
130	0xbc1e9657	-0.0096793985
131	0x3da29b29	0.07939751
132	0x3d260360	0.040530562
133	0x3cb3714d	0.021904612
134	0xbda262d0	-0.07929003
135	0x3df246fa	0.11829944
136	0xbdbf67b6	-0.09345953
137	0x3c935a3c	0.017987363
138	0xbdb7b797	-0.08970564
139	0xbdf7b7fb	-0.12095638
140	0xbd8ec2c0	-0.06970739
141	0x3dba0c6d	0.09084401
142	0xbdc868f2	-0.09785642
143	0x3dd1323b	0.10214659
144	0x3dfe1d65	0.1240795
145	0xbd4f4fa1	-0.05061305
146	0x3c5fee55	0.013667663
147	0xbd8dd741	-0.06925822
148	0xbdcdef82	-0.10055448
149	0xbdb3f30f	-0.08786594
150	0xbd0d5912	-0.034508772
151	0xbdcab862	-0.098984495
152	0xbaf4be11	-0.0018672367
153	0x3dbda39e	0.09259723
154	0x3d206518	0.03915891
155	0xbe0cde3b	-0.13756649
156	0x3d7726d0	0.06033975
157	0x3c65ce43	0.014026227
158	0x3d732527	0.059361603
159	0x3dd04bcb	0.10170706
160	0xbdef6d87	-0.116908126
161	0xbd9217d9	-0.07133455
162	0x3d88e7d3	0.06684842
163	0x3d1c9fbd	0.038238276
164	0xbd6830fa	-0.056687333
165	0xbdb2df94	-0.087340504
166	0x3cf48678	0.029849276
167	0xbc96f82e	-0.018428888
168	0x3d5a1a00	0.05324745
169	0xbd02a0ea	-0.03189174
170	0x3de23245	0.110447444
171	0x3ba02534	0.0048872475
172	0xbd00f9cd	-0.03148823
173	0xbdc8a594	-0.097972065
174	0x3e0c3b8a	0.13694587
175	0xbd969d4c	-0.07354221
176	0xbdb897e7	-0.09013348
177	0x3d970b3e	0.07375191
178	0xbd9ded20	-0.07711244
179	0x3da7fe4e	0.08202802
180	0x3c03fe9c	0.008056309
181	0xbdb5c5bb	-0.08875605
182	0xbe01cd48	-0.12675965
183	0xbdcbf813	-0.09959426
184	0x3dec6e6b	0.11544498
185	0xbbfaad5e	-0.0076500615
186	0xbd77cdfe	-0.060499184
187	0x3df8c0a7	0.121461205
188	0x3cbcb62e	0.023036089
189	0x3d989372	0.07449998
190	0x3dcceb2f	0.10005795
191	0x3dcbaf67	0.09945565
192	0x3d69ac4d	0.057049084
193	0x3d5e34af	0.05424946
194	0x3d7086e2	0.058722384
195	0x3d8bfd4a	0.068354204
196	0xbce7824e	-0.028260376
197	0xbc843d33	-0.016142463
198	0xbd9109ac	-0.07081923
199	0xbdad2a39	-0.08455319
200	0x3dbe7e67	0.09301453
201	0x3d816768	0.06318551
202	0x3db6c954	0.08925119
203	0x3d4a2c05	0.049358387
204	0x3d8f8ba1	0.07009054
205	0x3d6cad33	0.057782363
206	0x39a6df4e	0.00031828362
207	0xbdca35cc	-0.09873542
208	0x3d9a0e7d	0.07522295
209	0xbc0f1008	-0.0087318495
210	0xbd932a07	-0.071857505
211	0x3dda6829	0.10664398
212	0x3dccef6e	0.10006605
213	0x3d895997	0.06706541
214	0xbd53981b	-0.05165873
215	0xbd79c1c4	-0.060975805
216	0x3de1b08a	0.1102
217	0x3db3a881	0.08772374
218	0xbc0bfe66	-0.00854454
219	0xbd9c61c7	-0.07635837
220	0xbd937588	-0.07200152
221	0xbd86aef0	-0.065763354
222	0xbd814cbd	-0.06313465
223	0xbdb86d34	-0.09005204
224	0xbd27dd1e	-0.04098236
225	0x3dae418a	0.08508594
226	0xba722d4d	-0.0009238318
227	0x3d9e5d4a	0.07732637
228	0xb96f4ca4	-0.00022821367
229	0xbddcb9c7	-0.10777622
230	0x3dbb05f4	0.09131995
231	0x3dc5c915	0.09657494
232	0xbd198c4d	-0.037487317
233	0x3d19b644	0.037527338
234	0x3d091f83	0.033477318
235	0xbda91d86	-0.08257584
236	0x3c0972e6	0.00838921
237	0xbdae7279	-0.08517928
238	0x3d65a62f	0.05606669
239	0xbdc9e728	-0.09858543
240	0xbc43854c	-0.011933636
241	0xbd63a40a	-0.05557636
242	0xbdc14319	-0.09436626
243	0x3ce9c4e5	0.02853627
244	0xbd2319a2	-0.039819367
245	0xbc3636cb	-0.011121462
246	0xbc234a94	-0.009966511
247	0x3db47c31	0.0881275
248	0xbdad34a0	-0.08457303
249	0x3d82a7c3	0.06379654
250	0xbd695f55	-0.05697568
251	0x3d9f12ed	0.07767282
252	0x3d61e6c1	0.055151705
253	0x3df17f10	0.117918134
254	0xbd98b5ad	-0.07456527
255	0xbb447f2f	-0.0029983034

lstm.weight_hh_l0 f4 [256, 64]
0	0x3d22fd84	0.039792553
1	0xbda6b652	-0.081402436
2	0x3be201ae	0.006897173
3	0x3d0a1da3	0.03371967
4	0x3e0bf3cb	0.13667218
5	0xbd6c3e7a	-0.05767677
6	0xbe0f1f22	-0.1397672
7	0xbd562e6e	-0.052290373
8	0x3c8f2c14	0.017477073
9	0x3d8235de	0.063579306
10	0x3c9e341b	0.019311955
11	0x3dfc0098	0.12304801
12	0xbd941125	-0.072298326
13	0xbe03c813	-0.12869291
14	0x3cd486d6	0.025943201
15	0x3dbb34c6	0.09140925
16	0x3df56860	0.119827986
17	0xbb9d6c9a	-0.004804206
18	0x3c1ade3a	0.009452397
19	0x3d94e103	0.0726948
20	0x3dbd67b4	0.092482954
21	0xbdb1489f	-0.086564295
22	0xbd9620b7	-0.073304586
23	0x3d9b9fc4	0.07598832
24	0xbd4bf3f5	-0.049793202
25	0xbdaf7c0e	-0.085685834
26	0xbda13232	-0.07870902
27	0xbd44642e	-0.0479471
28	0xbab7f517	-0.0014034834
29	0xbc88dc2c	-0.016706549
30	0xbde7bce7	-0.11315327
31	0x3dd83a45	0.10557989
32	0xbbfb9013	-0.007677087
33	0x3df78519	0.12085933
34	0xbd6c4ee2	-0.057692416
35	0x3df5e15c	0.120058745
36	0x3cde41df	0.02713102
37	0xbdc5603a	-0.096374944
38	0x3de3c2d6	0.111211464
39	0x3d89f789	0.06736667
40	0xbde121fd	-0.10992811
41	0x3db99390	0.090613484
42	0xbd2b1d06	-0.041775726
43	0xbd8d0a52	-0.06886734
44	0xbcbfa68e	-0.02339485
45	0xbd934d42	-0.0719247
46	0x3dc9d1d8	0.09854478
47	0xbd5fc10f	-0.054627474
48	0xbdcdafb9	-0.10043282
49	0x3dd80175	0.10547153
50	0xbe0f3d37	-0.13988195
51	0xbddfae52	-0.10921921
52	0x3cdc9e61	0.02693099
53	0x3e04ae95	0.12957223
54	0xbd26bcbc	-0.040707335
55	0xbd44d1fc	-0.04805182
56	0xbd9c88c7	-0.07643276
57	0x3da90f6c	0.082548946
58	0xbcb31050	-0.021858364
59	0xbda017c9	-0.07817037
60	0xbd8ed895	-0.069749035
61	0xbdb68985	-0.089129485
62	0x3d1423cd	0.036166955
63	0xbd36dcbb	-0.0446441
64	0x3cf02651	0.029315146
65	0x3de16053	0.110047005
66	0x3ddee974	0.108843714
67	0xbe0f2889	-0.13980307
68	0x3da988a7	0.082780175
69	0x3dc193c6	0.09452014
70	0x3d8ca9d4	0.0686833
71	0x3d8e54fd	0.06949804
72	0xbce83807	-0.028347028
73	0xbdcf691a	-0.101274684
74	0xbd1e09be	-0.03858351
75	0xbd50b0a1	-0.050949696
76	0xbc3f56c5	-0.011678402
77	0x3d83299b	0.0640442
78	0x3e101cb8	0.14073455
79	0x3dc0e22f	0.09418141
80	0xbd081a56	-0.03322824
81	0xbc0b703d	-0.008510646
82	0xbd0343ae	-0.032046966
83	0xbcb3ba5f	-0.021939455
84	0xba2ed079	-0.0006668638
85	0x3ccccf00	0.025001049
86	0xbc3703b6	-0.011170318
87	0x3d0d9cc4	0.03457333
88	0x3ca36e58	0.019950077
89	0x3ddf9dae	0.10918747
90	0x3d10e563	0.03537501
91	0xbdaf30dd	-0.08554242
92	0x3cef139c	0.029184155
93	0x3d031672	0.032003827
94	0xbdfdcc99	-0.123925395
95	0xbc8ba7d0	-0.017047793
96	0x3d64cee6	0.055861376
97	0xbd96ccc4	-0.07363275
98	0x3d1810e0	0.03712547
99	0xbd3aaacf	-0.045573052
100	0x3d0f181b	0.0349351
101	0x3d905937	0.070482664
102	0x3d93d0ad	0.07217536
103	0xbddd23d9	-0.10797853
104	0x3ce87954	0.028378166
105	0xbde3135e	-0.110876784
106	0xbdb41637	-0.087933
107	0x3cbecb00	0.023290157
108	0xbd80c302	-0.06287195
109	0x3dc2d909	0.095140524
110	0x3d82fc0a	0.06395729
111	0x3dc8f08c	0.09811506
112	0xbdd24ba3	-0.10268333
113	0x3c09b030	0.008403823
114	0x3d93e204	0.072208434
115	0x3ca41d5b	0.020033529
116	0xbd45b015	-0.048263628
117	0x3e03219b	0.12805788
118	0x3ddb7e77	0.10717481
119	0x3d6c9895	0.0577627
120	0xbd3e6e5c	-0.046491966
121	0xbd7046cf	-0.05866128
122	0x3daf2f62	0.085539594
123	0x3ccff801	0.025386812
124	0xbd302eb3	-0.043013286
125	0x3caa836f	0.020814626
126	0xbdb2ead6	-0.08736198
127	0x3daa9665	0.08329467
128	0x3c1cd0ea	0.009571293
129	0x3bb92164	0.0056497324
130	0xbd0bf9c3	-0.03417374
131	0x3d7ddeeb	0.06198017
132	0x3dac7f21	0.084226854
133	0x3db20909	0.086931296
134	0x3e038742	0.12844566
135	0x3ca2352e	0.019800749
136	0x3db0ddca	0.08636053
137	0xbcd2ddb9	-0.025740491
138	0xbdda287f	-0.10652255
139	0x3d3ee32e	0.046603374
140	0xbb4a984a	-0.0030913525
141	0x3b76cef0	0.0037659965
142	0xbb9079c1	-0.0044090454
143	0x3ceb5a7f	0.028729675
144	0xbc03632b	-0.008019249
145	0x3d9c5ab0	0.07634485
146	0x3de3a408	0.11115271
147	0xbd264a4d	-0.040598202
148	0xbd61b632	-0.055105396
149	0xbd949d62	-0.07256581
150	0x3dcc19c7	0.09965854
151	0xbc6975e3	-0.014249298
152	0x3d4fcae2	0.050730594
153	0xbdd6502b	-0.104645096
154	0x3cb761a6	0.02238543
155	0xbdd9bf46	-0.10632186
156	0x3bd0bea3	0.006370382
157	0xbd4eba48	-0.05047062
158	0xbdc7ecf6	-0.097619936
159	0x3ce05d3c	0.027388208
160	0x3d6da406	0.058017753
161	0xbdcf3d51	-0.10119117
162	0xbd3b7a27	-0.04577079
163	0x3d8ec851	0.06971801
164	0xbabebbb5	-0.0014551791
165	0x3d814394	0.06311718
166	0xbda2695e	-0.079302534
167	0xbc443666	-0.01197586
168	0x3daa1124	0.083040506
169	0xbdb900d6	-0.090333626
170	0x3d54811d	0.051880945
171	0xbd7cab0a	-0.061686553
172	0xbda27b28	-0.079336464
173	0x3b7866f6	0.0037903166
174	0x3d67c426	0.056583546
175	0xbd3368db	-0.04380117
176	0x3cc93d87	0.024565471
177	0x3af0f68c	0.0018384024
178	0xbd92a890	-0.07161057
179	0xbc18df37	-0.009330562
180	0x3cfb4a4d	0.030675078
181	0xbd9928dd	-0.07478497
182	0xbd9e07b0	-0.0771631
183	0x3daa4fe4	0.08316019
184	0xbd8fea77	-0.070271425
185	0xbd124352	-0.035708733
186	0x3de54931	0.11195601
187	0xbd848fc5	-0.06472734
188	0xbd9bb71c	-0.07603285
189	0xbdb0cf4a	-0.08633287
190	0xbd9b08a5	-0.07570008
191	0x3d945e8b	0.07244595
192	0xbd6667b5	-0.056251246
193	0x3d482701	0.048865322
194	0x3d9c42d8	0.07629937
195	0xbd25aa81	-0.04044581
196	0x3d836ad6	0.06416862
197	0x3de82241	0.113346584
198	0xbd55603e	-0.052093737
199	0x3d4971ee	0.049180917
200	0xbd892ae2	-0.06697632
201	0x3da0be9c	0.07848856
202	0xbde103e0	-0.10987067
203	0xbca028cc	-0.019550703
204	0x3c9c54eb	0.01908346
205	0xbddf82fd	-0.10913656
206	0xbdad27f4	-0.08454886
207	0x3d8cbdc4	0.068721324
208	0xbdc9975d	-0.098433234
209	0xbc10cf1e	-0.008838443
210	0x3e080298	0.1328224
211	0xbdc10f4d	-0.094267465
212	0x3e068420	0.13136339
213	0x3df13686	0.11777978
214	0xbd20f46b	-0.039295595
215	0x3cf793a4	0.030221768
216	0xbd1e9172	-0.038712926
217	0xbd6d7b8a	-0.057979144
218	0x3dad1261	0.08450771
219	0x3d1770c4	0.036972776
220	0x3d97bf54	0.0740954
221	0x3dd5a619	0.10432071
222	0xbc9dc59c	-0.019259267
223	0xbca50dd9	-0.020148205
224	0xbdee0080	-0.11621189
225	0xbdd3b04b	-0.103363596
226	0xbd96cfbc	-0.07363841
227	0xbd66c12f	-0.056336578
228	0x3dafd7d4	0.08586088
229	0xbd2ac335	-0.04169007
230	0xbc849dec	-0.016188584
231	0x3db57074	0.08859339
232	0xbd8d5742	-0.06901409
233	0xba82febe	-0.0009994132
234	0xbdf665f2	-0.12031163
235	0x3da6c19d	0.081423976
236	0xbde825eb	-0.11335357
237	0x3da616ee	0.08109842
238	0xbcc94f35	-0.024573902
239	0xbd79ef35	-0.06101914
240	0xbd396ff8	-0.045272797
241	0xbdd683ab	-0.104743324
242	0xbd60efbd	-0.054916132
243	0x3d61b719	0.055106256
244	0x3dbeedb5	0.09322683
245	0x3d82ec00	0.0639267
246	0xbced4b9c	-0.028966717
247	0xbcb12831	-0.02162561
248	0x3d1c61d8	0.03817925
249	0xbde4e7f6	-0.111770555
250	0xbdf82e62	-0.12118222
251	0xbddddb4b	-0.108328424
252	0x3dece4b3	0.115670584
253	0x3d815cb6	0.06316511
254	0xbd8bb00a	-0.06820686
255	0xbcd29e25	-0.025710175

lstm.bias_ih_l0 f4 [256]
0	0xbda0e870	-0.07856834
1	0x3d779fd7	0.06045517
2	0x3d8663f5	0.06562034
3	0x3b3e16f8	0.002900539
4	0x3d1fb36e	0.038989477
5	0x3d37e1e0	0.044893146
6	0x3da43a90	0.080189824
7	0xbcb15739	-0.021648036
8	0x3e19e8e9	0.15030254
9	0xbd8b1735	-0.06791536
10	0x3c134c56	0.008990368
11	0x3de96091	0.11395372
12	0xbd849cd3	-0.06475224
13	0xbcf36419	-0.029710816
14	0x3daaa9b0	0.083331466
15	0xbd8383d1	-0.06421626
16	0x3df9cb83	0.1219702
17	0x3d934dd6	0.071925804
18	0xbd9c8b2a	-0.07643731
19	0x3e0ee434	0.1395424
20	0x3d9645bc	0.073375195
21	0xbd23c052	-0.039978333
22	0x3e0a5d73	0.1351221
23	0xbd4bcdf6	-0.049756967
24	0x3dc0827b	0.09399887
25	0xbdfb99f5	-0.12285224
26	0x3c584a0e	0.01320125
27	0x3cab83c7	0.02093686
28	0xbd34c4d4	-0.044133022
29	0x3dd286a1	0.10279585
30	0x3dc6c4d8	0.09705514
31	0xbd625699	-0.055258367
32	0xbda63c7a	-0.08117004
33	0xbd982869	-0.074295826
34	0x3d4092e3	0.047015082
35	0x3d8a4317	0.067510776
36	0xbd946440	-0.07245684
37	0x3dc69d7f	0.09698009
38	0xbdc1d088	-0.09463602
39	0x3de6de69	0.1127289
40	0x3df28a02	0.11842729
41	0xbdd0362b	-0.10166582
42	0xbdc89561	-0.09794117
43	0x3d5937e8	0.053031832
44	0xbd24ad9f	-0.04020464
45	0x3dd1b711	0.10239995
46	0xbdd86b3b	-0.105673276
47	0x3c1eb0fc	0.009685751
48	0x3d8908ae	0.06691109
49	0x3d537b39	0.051631186
50	0x3dbe4529	0.09290535
51	0xbdfd89cc	-0.12379798
52	0xbce91653	-0.028453028
53	0xbd98f52f	-0.0746864
54	0x3d6449e5	0.055734534
55	0x3d532681	0.051550392
56	0xbda72eb9	-0.081632085
57	0x3d2107d6	0.039314114
58	0xbca9ce8e	-0.020728376
59	0xbe002791	-0.12515093
60	0x3d9426a9	0.07233936
61	0x3e096b2c	0.13419789
62	0xbda00e2e	-0.078152046
63	0x3d892b26	0.06697683
64	0x3e0fd1cf	0.1404488
65	0x3d87fb9e	0.06639789
66	0x3d41a49a	0.047276117
67	0xbd2c126c	-0.042009756
68	0x3d857baa	0.06517728
69	0x3dbbd0ea	0.091707066
70	0xbdf28e94	-0.11843601
71	0xbd216ce2	-0.03941048
72	0x3c3a11a8	0.011356749
73	0x3d22c304	0.039736763
74	0xbd40484e	-0.046943955
75	0x3dc21937	0.094774656
76	0x3d64f8b0	0.05590123
77	0xbe0048fb	-0.1252784
78	0xbd8488dd	-0.06471417
79	0x3da318d2	0.079637185
80	0x3d889f37	0.06670993
81	0xbd148915	-0.036263544
82	0xb9f492ff	-0.00046648827
83	0x3d47f95a	0.048821785
84	0x3e10297c	0.14078325
85	0xbdaf5adb	-0.08562251
86	0xbd92859b	-0.071543895
87	0x3dc0d1cf	0.09415018
88	0x3da73b61	0.081656225
89	0x3cd3768e	0.025813367
90	0xbdb47bb6	-0.088126585
91	0xbdf17936	-0.11790697
92	0xbdfaf756	-0.12254207
93	0x3e104e76	0.1409243
94	0x3d86e7b0	0.0658716
95	0x3d93829a	0.07202645
96	0xbd2a5d79	-0.04159305
97	0x3dac2ac3	0.08406594
98	0xbb66dcb2	-0.003522676
99	0xbce8c99f	-0.028416453
100	0xbd540707	-0.051764514
101	0xbd793557	-0.060841884
102	0x3ba61bb5	0.005069221
103	0xbd879d1b	-0.06621762
104	0x3d37ad42	0.044842966
105	0x3d373e93	0.04473741
106	0x3c87a03b	0.016555896
107	0xbc7e6d45	-0.015528982
108	0x3df8b2bd	0.121434666
109	0x3db67b7b	0.08910271
110	0xbd952a20	-0.07283425
111	0x3d620c64	0.055187598
112	0xbcfbe752	-0.03074995
113	0xbcd097a8	-0.02546294
114	0x3df88445	0.121346034
115	0xbd3b297f	-0.04569387
116	0xbd02036d	-0.03174155
117	0xbd6d905a	-0.057998993
118	0xbdadde1a	-0.08489628
119	0x3de3f5f0	0.11130893
120	0x3d824c5c	0.06362221
121	0x3de2eecc	0.11080703
122	0x3d37ef61	0.044906024
123	0xbd0bed49	-0.03416184
124	0x3e05a470	0.13051009
125	0x3ce4f823	0.027950352
126	0xbd090e49	-0.03346089
127	0xbd65db66	-0.056117438
128	0x3d652a41	0.0559485
129	0x3dbdcd80	0.09267712
130	0x3d4e1712	0.05031497
131	0xbdaaea2b	-0.08345445
132	0x3e10bd2c	0.14134663
133	0xbd347cbd	-0.044064272
134	0xbd9b9d4e	-0.07598363
135	0x3deeedac	0.11666426
136	0xbdae2233	-0.08502617
137	0xbd71e7d3	-0.059058975
138	0x3d9153b4	0.07096043
139	0x3c23fc11	0.010008828
140	0x3d65ef5a	0.056136467
141	0x3d40b708	0.047049552
142	0xbd550510	-0.05200678
143	0x3d9da387	0.07697206
144	0xbd5641b9	-0.05230877
145	0xbdd7f692	-0.105450764
146	0x3d1f81c9	0.038942132
147	0xbd643f31	-0.055724327
148	0x3e02ce9d	0.12774129
149	0x3d3cf9f4	0.04613681
150	0xbd593501	-0.053029064
151	0xbe154226	-0.14576015
152	0xbcea52f3	-0.028604006
153	0x3e020fa5	0.1270128
154	0x3d466afc	0.048441872
155	0x3d9ad0c0	0.07559347
156	0xbdb86f29	-0.09005577
157	0x3d38bc9e	0.045101754
158	0xbd795284	-0.06086971
159	0xbe013d0f	-0.12620948
160	0x3d18afa3	0.037276875
161	0xbbebe4b4	-0.0071988944
162	0x3d6602f6	0.056155168
163	0x3db4ebbc	0.08834025
164	0x3d22f3ca	0.039783277
165	0x3df55504	0.11979106
166	0x3d8c22d0	0.068425775
167	0x3c148d47	0.009066886
168	0xbdede5e9	-0.116161175
169	0xbdbfe82b	-0.093704544
170	0xbddc494a	-0.10756166
171	0xbdefc07b	-0.117066346
172	0x3dfa7ed9	0.122312255
173	0x3e0ab5cb	0.13545911
174	0xbd9efd90	-0.07763207
175	0xbcf33c08	-0.029691711
176	0xbd24d4fe	-0.040242188
177	0xbe26da6b	-0.16294257
178	0xbdedbbce	-0.116080865
179	0x3da70279	0.081547685
180	0xbdb9336e	-0.090430126
181	0x3dbc43dc	0.09192631
182	0x3d54dc6f	0.051968034
183	0x3dc26c30	0.094932914
184	0x3d7809db	0.060556274
185	0xbd101eab	-0.035185497
186	0xbd9f31ea	-0.07773192
187	0x3e0185d2	0.12648705
188	0xbd9ae691	-0.07563508
189	0xbd3af663	-0.04564513
190	0xbd4d71ca	-0.050157346
191	0x3d5c711f	0.05381882
192	0xbd9d89de	-0.07692312
193	0x3dc8bdb0	0.09801805
194	0x3d1d8e2c	0.038465664
195	0x3cee0b68	0.029058173
196	0x3d7457e1	0.05965412
197	0xbdeef3fd	-0.11667631
198	0x3dbb7f4e	0.09155141
199	0x3e0ade0b	0.13561265
200	0xbc6ddeed	-0.014518482
201	0x3d722b5a	0.059123375
202	0x3c95616c	0.018234931
203	0xbdc5fec9	-0.09667737
204	0x3da3e274	0.08002177
205	0x3d84db50	0.06487143
206	0x3db3f09d	0.08786128
207	0x3de94115	0.113893665
208	0x3d230f41	0.03980947
209	0xbda7cefa	-0.081937745
210	0xbd33f177	-0.04393145
211	0xbd178b00	-0.036997795
212	0x3da0bd64	0.078486234
213	0xbd2adfcb	-0.04171733
214	0x3d0e4495	0.034733374
215	0x3c6b2aad	0.014353436
216	0x3dde35e2	0.10850121
217	0xbc993a93	-0.018704688
218	0x3da18233	0.07886162
219	0xbd937e7f	-0.072018616
220	0x3dc37dc5	0.09545473
221	0x3df7a03d	0.1209111
222	0xbd49147b	-0.049091797
223	0xbcae0b92	-0.021245752
224	0xbd8aed4a	-0.067835405
225	0xbd8dcd87	-0.06923967
226	0xbc5aa984	-0.01334608
227	0xbd42eb86	-0.047587894
228	0xbd61957d	-0.055074204
229	0xbc3d7120	-0.011562616
230	0xbd55902c	-0.052139446
231	0xbd92d13c	-0.071688145
232	0xbd7a4239	-0.06109831
233	0xbbbd4030	-0.005775474
234	0xbde999ba	-0.11406274
235	0x3d4cf46d	0.05003779
236	0x3d81dd16	0.06340997
237	0x3c57fc97	0.013182781
238	0x3da635ea	0.08115752
239	0xbd0884f4	-0.03332992
240	0xbcd22e65	-0.025656888
241	0xbcc49f5f	-0.024001775
242	0x3dc3dc67	0.09563523
243	0xbcc7d0fe	-0.024391647
244	0xbd8b6248	-0.06805855
245	0x3dca9a15	0.0989267
246	0x3d4eabdd	0.05045687
247	0xbd9d6241	-0.07684756
248	0xbd2daca2	-0.042400964
249	0x3e0e57b5	0.13900645
250	0xbda37799	-0.07981796
251	0xbde01263	-0.10941007
252	0x3d54c9de	0.051950328
253	0xbc52fb69	-0.012877324
254	0xbd4aeb88	-0.049541026
255	0x39affc60	0.00033566635

lstm.bias_hh_l0 f4 [256]
0	0xbda376a2	-0.07981612
1	0xbd1dd26b	-0.03853075
2	0xbd301c2b	-0.042995613
3	0xbcd3b32b	-0.02584227
4	0x3d89af5b	0.067228995
5	0x3be257e7	0.0069074514
6	0xbd33fe6e	-0.043943815
7	0xbd586b4d	-0.052836705
8	0x3e112920	0.14175844
9	0x3d924b4f	0.0714327
10	0x3d9b8bb8	0.075950086
11	0x3d9560b7	0.072938375
12	0x3df2b009	0.11849982
13	0x3da01657	0.07816761
14	0xbd39bcdf	-0.045346137
15	0x3d6db280	0.05803156
16	0xbd0bc08a	-0.034119166
17	0x3dacba3b	0.08433958
18	0x3d15dfe4	0.036590472
19	0x3c39d0f1	0.011341319
20	0x3e1e4279	0.15455045
21	0xbc808e24	-0.015692778
22	0x3cefe968	0.029286101
23	0xbd25c5ae	-0.040471725
24	0x3e0cbf20	0.13744783
25	0x3d903f39	0.07043309
26	0x3d260998	0.040536493
27	0x3dbc2154	0.09186044
28	0xbb0613b4	-0.0020458521
29	0x3db2bd95	0.08727566
30	0xbd93b163	-0.07211568
31	0x3b5df064	0.0033865208
32	0x3c218568	0.009858467
33	0x3de5f35d	0.112280585
34	0x3dd0d10b	0.10196122
35	0xbdb10f65	-0.086455144
36	0xbdc07845	-0.093979396
37	0x3d96520e	0.073398694
38	0xbdd0e472	-0.101998225
39	0x3e162a17	0.14664494
40	0x3e229bef	0.15879796
41	0xbdaff4c5	-0.08591608
42	0xbd797734	-0.060904697
43	0x3dabf7ec	0.08396897
44	0x3c91ffc3	0.017822152
45	0xbd891037	-0.06692546
46	0x3dacf3c7	0.08444934
47	0xbcadbf30	-0.02120933
48	0xbde17ee8	-0.110105336
49	0x3e21c6a2	0.15798429
50	0xbdd83df1	-0.105586894
51	0xbd197204	-0.03746225
52	0x3d200974	0.039071515
53	0xbb25d1c2	-0.0025302027
54	0xbe09d7ba	-0.134612
55	0x3d0e3026	0.034713887
56	0x3d245a6a	0.040125288
57	0xbcad3f0e	-0.02114823
58	0x3dfb869c	0.12281534
59	0x3dc13d57	0.09435528
60	0x3db3ede9	0.08785612
61	0xbd63fe90	-0.05566269
62	0xbd745595	-0.05965193
63	0x3dbc9968	0.092089474
64	0x3dc9e6c7	0.098584704
65	0x3b3c242b	0.0028708081
66	0x3dcb7d3b	0.09935995
67	0x3e090ec2	0.13384536
68	0x3ca27253	0.019829905
69	0x3dcc7752	0.09983696
70	0xbd56ce0f	-0.052442607
71	0x3da46169	0.08026392
72	0x3e066f50	0.131284
73	0x3c9ed98e	0.019390848
74	0x3ce57520	0.028009951
75	0xbd96fe1b	-0.073726855
76	0xbb154e03	-0.0022782094
77	0xbdbd974d	-0.09257374
78	0xbda414ba	-0.08011766
79	0xbd3d6ca4	-0.046246186
80	0x3b0284c5	0.0019915563
81	0xbd62c278	-0.05536124
82	0xbdba3b35	-0.09093324
83	0xbd426ac0	-0.047465086
84	0xbd574e91	-0.05256516
85	0xbddc2b5d	-0.107504584
86	0x3cc206d1	0.023684891
87	0x3e00cf66	0.12579116
88	0x3e174ed1	0.1477616
89	0x3ded542b	0.115883194
90	0xbd22d6f6	-0.039755784
91	0xbe0df41a	-0.13862649
92	0xbd4497d9	-0.047996376
93	0xbbce42d9	-0.00629459
94	0xbd96630d	-0.07343111
95	0x3d96d980	0.073657036
96	0x3dfcb229	0.12338669
97	0xbd16ec0d	-0.03684621
98	0x3e0cb94a	0.13742557
99	0xbe0ffde1	-0.14061691
100	0xbd992da1	-0.07479406
101	0x3dba5b4e	0.09099446
102	0x3ca2d1a5	0.019875357
103	0x3dcda2bb	0.10040804
104	0xbd5f9f0a	-0.05459503
105	0xbd1f599e	-0.038903825
106	0xbcd7f0ad	-0.02635988
107	0x3df156d4	0.11784139
108	0xbddd2eab	-0.10799917
109	0x3d842290	0.06451905
110	0x3d8b2a70	0.06795204
111	0x3daaca18	0.083393276
112	0x3d78543e	0.060627215
113	0x3cbdfafa	0.023190964
114	0x3ce947a7	0.02847655
115	0xbc14b7f7	-0.009077064
116	0xbd95cf25	-0.073149
117	0x3da14073	0.07873621
118	0xbe0ac7ff	-0.13552855
119	0xbc4581b9	-0.012054854
120	0x3dc214f0	0.0947665
121	0xbd906d52	-0.07052101
122	0xbd256bbb	-0.040385943
123	0xbc6d19cd	-0.014471483
124	0x3e0ea4bf	0.13930033
125	0x3e014ee2	0.12627748
126	0x3db963e2	0.09052254
127	0x3d0ed5c6	0.03487184
128	0x3c9652fd	0.018350119
129	0x3e12852a	0.1430861
130	0xbd71dad2	-0.059046574
131	0x3d20dcf5	0.03927322
132	0xbd41cbfe	-0.047313683
133	0x3b28017d	0.0025635653
134	0xbd58056d	-0.05273955
135	0x3e12ae92	0.14324406
136	0xbdb5e3c9	-0.08881337
137	0xbdce40f5	-0.10070983
138	0x3de34d28	0.11098701
139	0x3ccb041f	0.024782239
140	0x3e16dddc	0.1473307
141	0x3c4abf95	0.012374778
142	0x3df1e792	0.11811747
143	0x3d58ffa8	0.052978188
144	0x3d95736e	0.07297407
145	0x391ddd96	0.00015055234
146	0x3bc6b0b4	0.006063545
147	0x3dc27e47	0.09496742
148	0x3db451a1	0.08804632
149	0x3dbee31c	0.093206614
150	0xbd9a8586	-0.07544999
151	0xbc423de2	-0.011855574
152	0xbe10a3df	-0.14125012
153	0xbd4f2e3c	-0.050581202
154	0xbc1c6318	-0.00954511
155	0xbd70c03c	-0.05877708
156	0x3da93b2f	0.082632415
157	0xbdad83f9	-0.084724374
158	0xbcbbffb3	-0.022949075
159	0xbdf8d0dd	-0.121492125
160	0xbe0915c8	-0.13387215
161	0xbd573e75	-0.052549798
162	0xbe1024d2	-0.14076546
163	0x3d9bf03e	0.07614182
164	0xbcefbf94	-0.029266156
165	0x3dd51a32	0.10405387
166	0xb8f77f26	-0.00011801561
167	0xbdf25abd	-0.11833713
168	0xbdea6d53	-0.11446633
169	0xb9a90c69	-0.00032243438
170	0xbdf5ae18	-0.119960964
171	0xbd6a6e57	-0.057234135
172	0x3d7525b1	0.0598504
173	0x3d867cd5	0.065667786
174	0x3cc874ea	0.024469811
175	0xbd90ba17	-0.07066744
176	0xbd68f796	-0.05687674
177	0xb9e52555	-0.00043706098
178	0x3b377448	0.0027992893
179	0xbd6c5ed7	-0.057707634
180	0x3d550bdb	0.05201326
181	0xbc96056b	-0.01831313
182	0x3dda1e7b	0.10650345
183	0xbc62e2dd	-0.013848034
184	0xbd0c71c5	-0.034288187
185	0x3c1c023d	0.009522018
186	0xbda01a08	-0.07817465
187	0x3d781a47	0.060571935
188	0xbca48462	-0.020082656
189	0x3dd91fc2	0.106017604
190	0xbe07da9e	-0.1326699
191	0x3d2199db	0.03945337
192	0x3e0b8f16	0.13628802
193	0xbd9a3ee2	-0.07531525
194	0x3c9bf9de	0.019040044
195	0xbcdc6d1d	-0.026907498
196	0xbd00bef7	-0.03143212
197	0xbde80b2b	-0.11330255
198	0xbcfea58e	-0.031084802
199	0x3d39597f	0.045251366
200	0x3df6a124	0.12042454
201	0xbdd4ca3a	-0.10390134
202	0x3da792e7	0.08182316
203	0x3d48644a	0.048923768
204	0xbdb7dfa7	-0.08978205
205	0xbd8a9b62	-0.06767918
206	0x3e020506	0.12697229
207	0x3d49fa5a	0.04931102
208	0xbddd3cb8	-0.10802597
209	0xbdacee90	-0.0844394
210	0xbdbf5ff3	-0.09344473
211	0xbb65383e	-0.003497615
212	0xbd840fbb	-0.06448313
213	0xbdeba3b5	-0.11505834
214	0x3dc040af	0.093873374
215	0x3d563176	0.052293263
216	0x3d420795	0.047370512
217	0xbda84731	-0.08216704
218	0xbda14ea9	-0.07876331
219	0xbbb5b69c	-0.0055454504
220	0x3db2f71d	0.08738539
221	0x3db935a5	0.09043435
222	0xbde996a7	-0.11405688
223	0xbd743eb6	-0.05963012
224	0xbdd6e269	-0.10492403
225	0x3df2d036	0.11856119
226	0x3db9f25b	0.09079429
227	0x3dc6454b	0.09681185
228	0xbdb87132	-0.09005965
229	0x3ceec37c	0.029145949
230	0xbd8ee8af	-0.069779746
231	0xbd2d3024	-0.04228224
232	0xbceb6c12	-0.028738055
233	0xbdd0970e	-0.101850614
234	0xbd002701	-0.031287197
235	0x3ca7810a	0.020447273
236	0x3d500bf6	0.050792657
237	0x3dfc6690	0.1232425
238	0xbd09d33e	-0.033648722
239	0x3de908ee	0.11378656
240	0xbdbbc9c7	-0.09169345
241	0xbd654d8f	-0.05598217
242	0x3c979121	0.01850182
243	0xbd42494b	-0.04743318
244	0x3d9c576b	0.07633861
245	0x3cba95ce	0.02277651
246	0xbdddf5bf	-0.10837888
247	0x3d2eaa20	0.042642713
248	0x3b863dc8	0.0040967204
249	0x3da7e67c	0.08198258
250	0xbddd2bef	-0.10799395
251	0xbcc01e0e	-0.023451831
252	0x3df7c116	0.12097375
253	0x3de8d926	0.11369543
254	0xbdd0eba9	-0.102011986
255	0xbdfd3a99	-0.12364692

fc.0.weight f4 [32, 64]
0	0xbcd2cce5	-0.025732467
1	0x3dcfd5e3	0.101482175
2	0xbc8d217a	-0.017227877
3	0x3e0c607c	0.13708681
4	0xbdefd4db	-0.11710521
5	0xbd864459	-0.06556005
6	0x3d977192	0.07394709
7	0x3ca6ed0e	0.020376708
8	0xbd90fdc1	-0.0707965
9	0x3d10867a	0.035284497
10	0x3db15928	0.08659583
11	0x3c3d131b	0.0115402
12	0xbda172c3	-0.07883217
13	0x3d578066	0.052612685
14	0xbdff08bd	-0.124528386
15	0x3d17ebf6	0.037090264
16	0x3c79db87	0.015250093
17	0x3d42acbd	0.047528017
18	0xbdaa4991	-0.08314813
19	0x3c419070	0.011814222
20	0xbd23cc5b	-0.03998981
21	0xbe0885c6	-0.1333228
22	0xbdb86921	-0.09004427
23	0x3e137c98	0.14402997
24	0x3da7a63c	0.081860036
25	0x3d89d964	0.06730917
26	0x3d8d1b39	0.06889958
27	0x3d5eb654	0.0543731
28	0x3d070db2	0.032972045
29	0xbd952210	-0.072818875
30	0xbdc41761	-0.09574772
31	0x3d553b9a	0.052058794
32	0x3dae2ca4	0.08504608
33	0xbc7aa753	-0.015298682
34	0x3daa0fbb	0.083037816
35	0x3c4f54c1	0.012654484
36	0xbd05fd1d	-0.03271209
37	0xbc8514c9	-0.016245263
38	0xbc7ff51b	-0.015622403
39	0x3c25140c	0.01007558
40	0x3e0b3902	0.13595966
41	0xbda8c1f9	-0.08240122
42	0xbdd7c729	-0.10536034
43	0x3cac87c0	0.021060824
44	0xbbfc603b	-0.0077019013
45	0xbdc7a247	-0.09747749
46	0x3d19389a	0.037407495
47	0x3d9ef9d5	0.077624954
48	0x3dc0cc09	0.094139166
49	0x3dce6b19	0.10079021
50	0x3d1ae6c5	0.037817735
51	0x3df6575b	0.120283805
52	0x3dc8431b	0.09778424
53	0x3cf960a8	0.030441597
54	0x3ce13e1b	0.027495435
55	0xbbf941ab	-0.007606705
56	0x3cb818cb	0.02247276
57	0x3b600a57	0.003418585
58	0xbdb8ce73	-0.09023752
59	0x3daabdeb	0.08337005
60	0xbd0d9223	-0.034563195
61	0x3db360a3	0.08758666
62	0x3c8b47d8	0.017002031
63	0x3dd0593f	0.10173272
64	0x3bb1ec20	0.0054297596
65	0x3d9b35cc	0.0757862
66	0xbd2d5f58	-0.042327255
67	0xbcdbf980	-0.02685237
68	0x3de004ae	0.109383926
69	0xbcc8ed20	-0.024527133
70	0xbc409530	-0.011754319
71	0xbde62c4a	-0.11238916
72	0x3de81cfa	0.11333652
73	0x3c9f4360	0.019441307
74	0x3ddcbc5c	0.10778114
75	0xbdf67e56	-0.120358154
76	0xbdb7d34a	-0.08975847
77	0x3d76dad0	0.06026727
78	0x3bdb3300	0.0066894293
79	0xbd90b3b0	-0.07065523
80	0xbd1653f8	-0.036701173
81	0x3ca7d3c0	0.020486712
82	0xbcdebda0	-0.02719003
83	0x3cf2c2f0	0.029633969
84	0xbd167bd0	-0.03673917
85	0x3cb64b40	0.022252679
86	0x3dfdd422	0.12393977
87	0x3de33e48	0.110958636
88	0xbd875aac	-0.06609091
89	0xbd4e3d7c	-0.050351605
90	0x3d0fc740	0.03510213
91	0xbdc37994	-0.095446736
92	0xbd84239a	-0.06452103
93	0xbd845058	-0.06460637
94	0xbdce6bba	-0.10079141
95	0x3da2bf6a	0.079466656
96	0x3ddb7974	0.10716525
97	0x3d473dc4	0.04864289
98	0x3cee77b8	0.02910982
99	0xbdc9af9a	-0.098479465
100	0x3ae8f380	0.0017772764
101	0xbdb8a3dc	-0.09015629
102	0x3d965b16	0.07341592
103	0x3b9b0b60	0.0047315806
104	0xbbf3aec0	-0.0074366033
105	0xbd098344	-0.03357245
106	0xbc1e69c0	-0.009668767
107	0xbd20a494	-0.039219454
108	0x3d001988	0.03127435
109	0x3c236eb0	0.00997512
110	0x3be259c0	0.0069076717
111	0x3d27123c	0.040788874
112	0xbc3f0140	-0.011658013
113	0xbda4be74	-0.080441386
114	0xbd8849a4	-0.06654671
115	0x3dd12a84	0.10213187
116	0xbd782388	-0.06058076
117	0x3dd4ca96	0.10390203
118	0x3de0fa0e	0.10985194
119	0xbdfb4e50	-0.12270796
120	0xbd762510	-0.06009394
121	0x3deab456	0.114601776
122	0xbdb0e49e	-0.08637355
123	0x3df58644	0.119885
124	0xbc9111a8	-0.017708614
125	0xba1d4400	-0.00059992075
126	0x3de203ec	0.11035904
127	0x3bc63a80	0.006049454
128	0x3d9fefb2	0.0780939
129	0x3df66f6c	0.12032971
130	0x3b75b040	0.0037489086
131	0xbd9081e6	-0.07056026
132	0xbdd3ad26	-0.1033576
133	0x3bf3e060	0.007442519
134	0xbdab50e0	-0.08365035
135	0xbd864624	-0.06556347
136	0x3bd24de0	0.006417975
137	0x3df33c88	0.1187678
138	0xbc294690	-0.010331765
139	0x3abd1800	0.0014426708
140	0xbd47d328	-0.04878536
141	0x3d9be78c	0.076125234
142	0xbd67b5a8	-0.056569725
143	0xbd493448	-0.049122125
144	0xbd15a2c0	-0.036532164
145	0x3db65b16	0.08904092
146	0x3dcfcb14	0.10146156
147	0xbd6c0638	-0.05762312
148	0x3de18894	0.11012378
149	0xbda4673e	-0.080275044
150	0x3cee0bf0	0.029058427
151	0x3d893cdc	0.06701061
152	0x3db99ec8	0.09063488
153	0xbcd6d478	-0.02622436
154	0xbc622e40	-0.013804972
155	0xbd992602	-0.074779525
156	0x3da3fe7a	0.08007522
157	0xbdc64d98	-0.096827686
158	0x3d0f99d0	0.035058796
159	0x3cc48578	0.023989424
160	0xbdf5de3a	-0.12005277
161	0x3d65a568	0.056065947
162	0x3d8b0fec	0.06790146
163	0x3c2be690	0.010491982
164	0xbde7d556	-0.113199875
165	0xbd3d8204	-0.04626657
166	0xbc7383f0	-0.014862999
167	0x3d3213b8	0.043475837
168	0x3b0598c0	0.0020385236
169	0x3d80a7f8	0.062820375
170	0xbc4d9510	-0.012547746
171	0xbcbbf518	-0.022944018
172	0xbdfd208c	-0.123597234
173	0x3c93ce30	0.018042654
174	0xbcbbf240	-0.022942662
175	0x3d152be0	0.036418796
176	0xbc0c9b50	-0.008581951
177	0x3c8a5010	0.01688388
178	0xbd03cec0	-0.032179594
179	0xbd3e6a60	-0.046488166
180	0x3df7c23e	0.12097596
181	0xbd475fe4	-0.048675433
182	0xbdcd0f54	-0.10012689
183	0x3d7d8f94	0.061904505
184	0xbdb86dc6	-0.090053126
185	0x3df34b1c	0.1187956
186	0x3d570124	0.052491322
187	0xbd7e6928	-0.062112004
188	0xbd83270c	-0.06403932
189	0x3d93baf0	0.0721339
190	0x3d8a364a	0.06748636
191	0x3dd5f91c	0.104479045
192	0xbce41cfa	-0.027845848
193	0x3d563a68	0.052301794
194	0x3daf7b1a	0.08568402
195	0x3a51ef40	0.00080083683
196	0xbd579219	-0.052629564
197	0xbdd981fb	-0.10620495
198	0xbcf42742	-0.029803876
199	0x3c2fc5db	0.010728325
200	0xbc39129c	-0.011295941
201	0xbd845c0f	-0.06462871
202	0xbbb70f96	-0.005586575
203	0x3d3f6a48	0.046732217
204	0xbd67ca92	-0.05658967
205	0xbd6976f5	-0.056998212
206	0x3dd1634c	0.102240175
207	0x3d3426a8	0.043982178
208	0xbd660cf0	-0.056164682
209	0x3d809aa0	0.062794924
210	0x3da9d0b3	0.08291759
211	0x3dbe9fcd	0.09307823
212	0xbdad9c3d	-0.08477066
213	0x3c9dd984	0.019268759
214	0x3e01886b	0.12649696
215	0x3dd09da0	0.101863146
216	0x3db9a9d5	0.09065596
217	0xbca580ff	-0.020203112
218	0x3c27e89e	0.010248331
219	0xbdfcc35e	-0.12341951
220	0xbdb86514	-0.09003654
221	0x3dea04e2	0.114267126
222	0xbd17d1b6	-0.03706523
223	0xbce0ea8e	-0.027455594
224	0x3d873fce	0.06603967
225	0xbdfce38c	-0.123480886
226	0x3d14eeeb	0.036360662
227	0x3dd97752	0.10618462
228	0x3dca8383	0.09888365
229	0x3d203101	0.039109234
230	0x3dcea67a	0.10090347
231	0x3de3a820	0.11116052
232	0xbcc2f6eb	-0.02379938
233	0x3de93069	0.11386187
234	0xbcd10339	-0.025514232
235	0x3c7f3a15	0.015577813
236	0xbe0c559a	-0.1370453
237	0x3cc56199	0.02409439
238	0x3d805ca6	0.06267671
239	0x3dcf4b48	0.10121781
240	0x3d8010f5	0.06253234
241	0xbc9f7c68	-0.019468501
242	0x3d1b747e	0.037952892
243	0xbd0d9b16	-0.03457173
244	0x3d70bc0f	0.058773097
245	0xbe00a92d	-0.12564535
246	0x3d1e6055	0.038666088
247	0xbe0635ce	-0.13106462
248	0x3db0a52c	0.08625254
249	0xbc8f4fda	-0.01749413
250	0xbcb97a48	-0.022641316
251	0x3d4c2490	0.049839556
252	0xbd5a4de3	-0.053296935
253	0xbd9d368f	-0.07676422
254	0x3d2e068e	0.04248672
255	0xbd17e123	-0.03707994

fc.0.bias f4 [32]
0	0x3cd3ea96	0.025868695
1	0xbcfe2af8	-0.031026348
2	0xbde713b4	-0.11283055
3	0x3bb30669	0.0054634106
4	0x3dbf0612	0.0932733
5	0x3d388d98	0.04505691
6	0x3db7aae4	0.08968142
7	0xbdf55c50	-0.11980498
8	0x3e012dae	0.12615082
9	0xbd4f9106	-0.050675415
10	0xbdce0924	-0.10060337
11	0xbd66c9f4	-0.05634494
12	0x3db3e760	0.08784366
13	0x3c7e9ffb	0.015541072
14	0xbdf4a843	-0.11946156
15	0xbdaa2646	-0.08308081
16	0xbd74b02c	-0.059738323
17	0xbd41aa9a	-0.04728184
18	0x3c4a9770	0.012365207
19	0xbd0b1af0	-0.033961236
20	0xbd5b75bc	-0.053579077
21	0xbd4021d9	-0.04690728
22	0xbd727bf4	-0.059200242
23	0x3c5bc204	0.013412956
24	0xbdfaeb9e	-0.12251972
25	0xbc823568	-0.015894607
26	0x3dc14ce2	0.09438492
27	0xbc81f368	-0.015863135
28	0xbcb04686	-0.021518003
29	0xbca81a98	-0.020520493
30	0x3dc07dd7	0.09399002
31	0x3dc801da	0.09765978

fc.2.weight f4 [1, 32]
0	0xbe2437c0	-0.16036892
1	0xbe0feb0b	-0.14054506
2	0x3d1c7fa2	0.038207658
3	0xbdfa432e	-0.12219845
4	0x3e3ce4a4	0.18446594
5	0x3e11d6ed	0.14242144
6	0x3dff623f	0.12469911
7	0xbe2634f6	-0.1623114
8	0x3dfb723e	0.12277649
9	0xbb50749c	-0.0031807786
10	0x3d9da8cb	0.0769821
11	0xbda39c5b	-0.07988807
12	0xbde268ae	-0.11055122
13	0x3e340c47	0.17582808
14	0xbdb9fad2	-0.09081043
15	0xbe05816d	-0.13037653
16	0xbdc185e1	-0.094493635
17	0xbdad13ac	-0.08451018
18	0xbe00a70d	-0.12563725
19	0xbd8bf862	-0.06834485
20	0xbde61b7c	-0.11235711
21	0xbd752183	-0.059846412
22	0x3d83ad9a	0.06429596
23	0xbc093144	-0.008373562
24	0xbd650354	-0.055911377
25	0x3e174740	0.14773273
26	0xbdc19f29	-0.094541855
27	0x3c074294	0.00825562
28	0xbc9e0048	-0.019287243
29	0x3e06a7d9	0.13149966
30	0x3d5c48bd	0.053780306
31	0xbe18127c	-0.14850801
