models/forecast_ph_lstm_pt.pth (torch, 80888 bytes, 7 tensors)

lstm.weight_ih_l0 f4 [256, 2]
000000 0f 4d 10 3e fd cd 1a 3e ad a3 27 3d 55 17 e8 3d
       0.14091896 0.15117641 0.040927578 0.11332575
000010 d7 f5 00 3d 1d 71 11 3d 6e ee 0a be 76 8b a7 3d
       0.03148445 0.035508264 -0.13567516 0.08180897
000020 cd 4b 51 3e 4f a6 93 bd 1a 75 c1 3d 71 9d 22 bc
       0.20439072 -0.07209455 0.094461635 -0.009925232
000030 1e 0c 17 3e c1 e6 b5 3c 5a af 10 3e e0 31 78 3b
       0.14750716 0.022204759 0.14129391 0.0037871525
000040 50 37 4b 3e 6d e3 3f 3d 45 76 04 3d db 79 b4 3d
       0.19845319 0.04684775 0.032339353 0.088123046
000050 72 ee 86 3d f8 57 64 3d 7f b3 0b bd 88 18 92 3d
       0.065884486 0.055747956 -0.034106728 0.07133585
000060 ff 4d ac bc 88 c2 35 bd ad 59 95 bd 72 11 d1 bd
       -0.021033285 -0.044374973 -0.07292495 -0.102084056
000070 e3 e3 df 3d d4 39 b7 bd 58 a3 30 3e e1 37 e3 bd
       0.10932138 -0.08946577 0.1724981 -0.110946424
000080 ae 29 62 3d 2c fc 60 3c 17 7e 2b 3d 9e 13 bd 3d
       0.05521553 0.013731997 0.041868296 0.09232257
000090 2d 74 06 3e c0 d4 16 3e 09 08 3d 3d 8b c1 75 3c
       0.13130255 0.14729595 0.04615024 0.0149997575
0000a0 b3 e9 06 3e fe 0b c4 bb 3e 49 5f 3c 71 6a cf 3d
       0.13175087 -0.005982875 0.013628302 0.10127724
0000b0 e2 91 1f 3e da 65 1f bd c7 68 b7 3d d9 94 5e 3c
       0.15582994 -0.038915493 0.089555316 0.013585293
0000c0 07 c2 20 3e ac dc 05 bd b8 0f bb bd c8 4b 64 bd
       0.15699016 -0.032681152 -0.091338575 -0.055736333
0000d0 52 16 40 bd af 73 ee 3d 75 7a d2 3d d9 80 73 3d
       -0.046896286 0.11643159 0.10277263 0.05944905
0000e0 07 08 53 bd 13 c3 8e 3d 64 2d 01 3e 37 39 b2 bd
       -0.051521327 0.06970801 0.12614971 -0.08702319
0000f0 57 b5 ac 3d b5 fe 7e bd 51 e8 ba 3d 81 2a 26 bd
       0.08433025 -0.062254626 0.09126342 -0.04056788
000100 d9 bc f0 3d 27 b4 50 bc 64 ae 13 3e 55 4e c4 bd
       0.1175477 -0.012738264 0.14421993 -0.09585253
000110 5b 15 e5 bd 15 97 b5 bd bb 77 41 3e 84 63 41 3d
       -0.11185714 -0.08866707 0.1889333 0.047214046
000120 0a 43 1e 3e 33 54 82 bd fd 6d 86 bd 21 60 c6 bd
       0.15455261 -0.06363716 -0.06563947 -0.09686304
000130 12 ee 9d 3b 1f c6 c1 3d d9 bb 87 3d 03 27 cd 3d
       0.00481964 0.09461617 0.06627626 0.100172065
000140 43 cb d2 bd 7a 37 e3 bd 52 16 1a 3e 23 31 2a bd
       -0.10292675 -0.11094566 0.15047577 -0.041550767
000150 4d 63 19 3e d5 f8 7e bc 8e 0d 04 3e 38 8d cd bd
       0.14979286 -0.015562256 0.12895796 -0.10036701
000160 ee f9 5b bc 1d a3 32 3d 37 3d 72 3d 0f 40 87 bd
       -0.013426287 0.04361259 0.05914041 -0.06604015
000170 51 6c 12 3e 31 b8 9d 3d 62 2e 95 bd 8e 5d a5 bd
       0.14299132 0.07701147 -0.072842374 -0.08074485
000180 cc 5a 35 3e 96 8d 10 bd 82 bd b1 bc 21 98 f6 bd
       0.17710418 -0.035291277 -0.02169681 -0.12040735
000190 7f 51 7d bc 75 13 05 3d 49 6c ed 3c 6d c5 14 3d
       -0.015461325 0.03248926 0.028982298 0.036321092
0001a0 be 3d 75 3d b1 24 ae bd e6 95 2c be 61 33 88 bd
       0.059873335 -0.08503092 -0.16854057 -0.06650425
0001b0 dc ba 3b be 92 70 ce bd 26 0f 4a 3e 28 b3 9b 3c
       -0.18333 -0.10080065 0.19732341 0.019006327
0001c0 38 34 d2 3d ad e0 80 bd 77 00 10 3c 2f e2 e3 3b
       0.10263866 -0.062928535 0.008789173 0.0069544534
0001d0 f5 9a e8 3d 86 82 67 bd a8 4c 15 3d 96 c3 d0 bc
       0.11357681 -0.05652096 0.03645006 -0.025483888
0001e0 d9 ca a6 3d 68 5f 13 bd 55 73 38 3d 49 22 b0 bd
       0.08144159 -0.03597966 0.045031864 -0.086002894
0001f0 59 f8 f3 bd dc f2 9e bd 0d 75 7c 3b 98 e5 d2 bd
       -0.11912603 -0.077611655 0.0038521916 -0.10297698
000200 dc e9 1b 3e 93 cd 40 3c 1f 3d 37 3e de ef 26 3d
       0.15225929 0.011767763 0.1789441 0.0407561
000210 7b fe 27 bd 30 5e e1 3d d0 5d eb bd d5 a1 40 bd
       -0.041014176 0.11004293 -0.11492503 -0.047029335
000220 cc 6b 51 bc 67 23 db bd 7a 28 aa 3c a0 9d 7b bd
       -0.012782048 -0.10700112 0.020771254 -0.06142962
000230 b1 52 d8 3d f1 7d c6 bd bb 8f 32 3e 5c b0 8f bd
       0.10562647 -0.0969199 0.17437641 -0.0701606
000240 19 69 9b 3d 97 45 48 3d ee f0 19 3e 7f 8a 13 3e
       0.07588405 0.04889449 0.15033314 0.14408301
000250 25 db 6a 3e e6 fd 2f bd 36 d8 59 3d 2c 77 67 bd
       0.2293516 -0.042966746 0.05318471 -0.056510136
000260 04 30 7f 3d 6b 82 ae bd 96 4c b1 3d 50 65 e9 bd
       0.06230165 -0.08520969 0.08657186 -0.11396277
000270 6e a6 29 3e 52 75 ae 3d 23 be d2 3d dd ac 8b bd
       0.16567394 0.08518471 0.10290172 -0.068200804
000280 65 8d 98 3d d0 5d b1 3c 00 60 c8 3d de 02 c6 bd
       0.07448844 0.021651179 0.097839355 -0.096685156
000290 8f b2 23 3e cd e1 d5 3c 30 4b c6 bc b6 66 2c 3e
       0.15986083 0.026108647 -0.024205774 0.16836056
0002a0 22 91 00 3e bb c6 3a bd 3d 56 9d bd 41 81 d7 3b
       0.12555364 -0.04559968 -0.07682464 0.0065766876
0002b0 f9 ef 1b 3e 91 a1 8a bc 87 dc 44 bd 23 15 2b bd
       0.15228261 -0.016922744 -0.048061874 -0.041768204
0002c0 55 ca 7c bb a1 03 9c 3d 1f dc 0f 3e f4 da e5 bd
       -0.0038572748 0.0761788 0.14048813 -0.112234026
0002d0 23 da 9d 3d c7 97 9f 3d b5 2c b3 3d a3 8f 0b bd
       0.07707622 0.07792621 0.087487616 -0.03407253
0002e0 00 24 15 bd 91 4f 11 3e c8 66 b5 3d 3a 86 23 3a
       -0.036411285 0.14190508 0.088574946 0.0006237958
0002f0 78 1d 54 3d 22 5b 83 3d 9b 22 09 3d d4 0c 01 bd
       0.051785916 0.064138666 0.033480268 -0.031506374
000300 83 e6 22 3e 9a 9b f9 3d 54 dc 01 3d 50 ea 2f bd
       0.15908246 0.12187882 0.031704262 -0.042948067
000310 d0 04 09 bd e3 28 8f bb fc 75 d3 3d 91 7b 2c 3d
       -0.033451855 -0.0043688877 0.10325238 0.04211003
000320 05 07 bf bd 52 30 e2 bc ef b6 28 3e d6 46 49 3d
       -0.09327511 -0.027610932 0.16476034 0.04913982
000330 be d4 ad 3d 64 97 f6 bc 8d 3c 7d bd 9a 28 03 be
       0.08487843 -0.030101486 -0.061825324 -0.12808457
000340 20 2b 9a bd 6c 43 97 3c 41 ae 27 3e 2c 25 88 3d
       -0.07527757 0.018464766 0.16375066 0.06647715
000350 69 07 22 bd cb aa 8b bd f4 ca 1f 3d f7 a8 f5 3d
       -0.039557848 -0.068196855 0.03901191 0.11995118
000360 57 df 94 3d a6 91 28 bc e8 69 b4 3d 3b 84 9b bd
       0.07269161 -0.010288632 0.088092625 -0.0759358
000370 16 de 58 bc b4 4e b0 3d 4a 2c 19 bd 6f 1b 22 bd
       -0.013236543 0.086087614 -0.037395753 -0.039576944
000380 1d 6b 75 bd c6 64 c5 3d f5 5e fe 3d 20 f4 56 3d
       -0.059916604 0.09638362 0.12420455 0.05247891
000390 16 70 01 bd 49 cf fe bd 00 1c ef bc 6c 9a 64 3e
       -0.031601034 -0.1244188 -0.029188156 0.22324532
0003a0 69 88 f3 3d 6e 8c dd 3d 67 06 ec 3b 88 c9 0c 3d
       0.118912525 0.108178005 0.0072029117 0.034371883
0003b0 38 c9 9b bd 22 7e da bd b8 35 15 bd 13 36 f2 bd
       -0.07606739 -0.10668589 -0.036428183 -0.1182672
0003c0 d0 bb d1 3d ff a3 00 bd 44 58 84 3d 8d 39 f7 bc
       0.102409005 -0.0314064 0.06462148 -0.03017881
0003d0 6e 4c 94 3d c6 69 1c bd c4 eb 3d 3c 96 a6 c6 3d
       0.0724114 -0.03818681 0.011591855 0.096997425
0003e0 d6 78 30 3d fe 0c b7 3d 8e ed 03 3c 4d a4 d8 bd
       0.043083988 0.08938025 0.008052243 -0.10578213
0003f0 10 f7 11 bd df f4 18 bd 63 fb 1a 3c 8d e5 f6 bd
       -0.035636008 -0.037342902 0.009459349 -0.12055502

lstm.weight_hh_l0 f4 [256, 64]
000000 f3 bd 4d 3d 6e c4 85 bd bb a0 ae bd 8c 56 33 be
       0.050229978 -0.065316066 -0.08526751 -0.17513484
000010 f5 cd fb 3d 50 3d 17 be 66 6a dd 3d cd fe 38 3c
       0.122951426 -0.14769483 0.108113095 0.011291218
000020 d6 bf 73 bb e6 3b bf 3d bf 8c 43 bc 78 0b 81 3d
       -0.00371932 0.093375966 -0.011935412 0.063010156
000030 68 a9 9f 3d 40 7c d0 bd 48 26 16 3d 76 0f 59 3d
       0.077959836 -0.10179949 0.0366576 0.05299326
000040 d0 36 26 3d c6 f7 d1 3b 09 84 cb 3c 5a 84 23 be
       0.040579617 0.0064077107 0.024843233 -0.15968457
000050 53 0d 0a bd 88 1b 32 3e f4 22 c3 3d 19 56 5f 3c
       -0.033704113 0.17393315 0.09528151 0.013631367
000060 e8 80 f2 bd 6a 97 b4 3c e7 2b 60 bd 78 e6 fc 3d
       -0.11840993 0.022044856 -0.05472937 0.12348646
000070 1e 0d b9 bd 2a a4 ff 3c 2a de b8 bc 20 e9 d0 3c
       -0.09035705 0.03120621 -0.022566874 0.025501788
000080 a7 64 bb 3d 31 9d fa 3b 38 2c 14 bc a6 b3 95 3d
       0.09150057 0.007648133 -0.009043746 0.07309656
000090 c2 3d d7 3d 19 02 7a bd b6 eb fa bc 11 0d f0 3c
       0.10509826 -0.061037157 -0.030629974 0.029303106
0000a0 c8 c0 e5 3b 34 15 33 3d f0 97 aa bc 6a 7a e1 bd
       0.0070115067 0.043721393 -0.020824403 -0.11009677
0000b0 2b 62 21 3d 3e 58 a3 3c 6c 8e 99 3d b8 77 c4 3d
       0.03940026 0.019939538 0.07497868 0.09593147
0000c0 ed c4 fd 3d 11 6f 2f 3d 7c 7e 2a bc b5 26 fe bc
       0.12391076 0.04283053 -0.010406133 -0.031024316
0000d0 75 25 94 bd b4 bc 3c 3c fd 69 05 be e3 d1 a5 bd
       -0.07233707 0.0115196 -0.13028713 -0.08096673
0000e0 ad 9e e3 bd d3 f7 d1 bd 8d 43 a8 bd 9a e3 1c be
       -0.111142494 -0.10252347 -0.08216009 -0.15321198
0000f0 aa b1 71 bd fc ef 81 3d b7 8c 2d 3e 31 71 88 bd
       -0.059007324 0.063446015 0.1694821 -0.066622145
000100 21 24 c5 bb 59 a9 a7 3d fc 59 63 bd 07 9c 6f bd
       -0.00601627 0.081865974 -0.055505738 -0.05849841
000110 37 e5 ab 3d d0 0c dc bd 69 ff a3 3c 3e 4d fb 3d
       0.08393329 -0.10744631 0.02001925 0.12270592
000120 d2 8f f6 3c 08 4c 71 3d fe 07 a8 bd d3 c7 b3 bb
       0.030097876 0.0589104 -0.082046494 -0.0054864674
000130 db 60 b0 3b a4 0e b1 3c 09 ee 15 3d 96 06 df 3d
       0.00538264 0.021613427 0.03660396 0.10889928
000140 99 58 5e bd 95 59 77 3a fe c9 9f bd 06 19 f8 bd
       -0.054283712 0.0009435651 -0.07802199 -0.12114148
000150 07 6f b5 bc 4a 1c d4 bd 47 21 bd 3d af 8e b8 3c
       -0.022147669 -0.10356958 0.09234863 0.022528974
000160 44 0b 9b bd 16 24 86 3d a4 bf d8 bd 55 57 e2 bc
       -0.07570508 0.065498516 -0.105834275 -0.027629534
000170 de 65 03 be df 18 92 bd d6 46 91 bd 9a b6 af bc
       -0.12831828 -0.0713365 -0.07093589 -0.021449376
000180 f3 24 9f 3d b5 ea f6 3d d5 83 ff 3c 52 d1 b7 bd
       0.077707194 0.120564856 0.031190792 -0.089754716
000190 95 4e a9 bd 9c e2 dd 3d 15 2e 17 3d 22 e6 77 bb
       -0.082669415 0.10834238 0.03690918 -0.0037826379
0001a0 31 fe 52 3c 6d ab d8 bd f8 82 1e bd 79 01 d9 3d
       0.012877987 -0.10579572 -0.03869912 0.10595984
0001b0 fb 76 2c bd d7 e4 98 3c 67 4a e7 bd 6a 4a a6 bd
       -0.042105656 0.018663807 -0.11293488 -0.08119662
0001c0 db a4 a6 3c d3 34 f7 bd 57 c1 5e bc 03 b1 9b 3d
       0.020342281 -0.12070622 -0.0135959005 0.07602122
0001d0 25 3f f5 bd 5d 74 02 3d 8d c5 75 bd 2c 83 80 bd
       -0.119749345 0.031849254 -0.060002852 -0.06275019
0001e0 be 33 42 3d 8f e9 f5 3d de 53 4b bd 3d 30 aa bd
       0.047412626 0.120074384 -0.04964053 -0.08309982
0001f0 5b 16 d6 bd 12 43 4e bd 19 b1 49 bd 1b 24 34 bd
       -0.10453483 -0.050356932 -0.04924116 -0.043979745
000200 dc 9c 31 3d 5d 37 ce bd 5c c0 b7 3d df 63 94 3d
       0.043362483 -0.100691535 0.089722365 0.072456114
000210 ad d3 d5 bd 0a b9 58 bd 63 8f 5f 3d 9a f4 0c bc
       -0.104407646 -0.052910842 0.054580104 -0.008603239
000220 ae b9 27 3c 1e a3 36 bd b2 19 93 3d fb bc ae bd
       0.010237141 -0.044589154 0.07182635 -0.08532139
000230 49 3e b4 3d f6 b8 0b bd 40 e5 17 3c ad bd d8 3d
       0.088009425 -0.03411194 0.009270966 0.10583053
000240 4d 83 66 b9 ee 4c b8 bd b3 a3 1e bd 2c 6a ca 3d
       -0.00021983423 -0.08999048 -0.038730334 0.09883532
000250 48 23 ec bd 4c 7f 06 3b b2 96 da bd 51 a4 ac 3d
       -0.11530167 0.0020522652 -0.10673274 0.08429778
000260 3b 3d e9 3c d5 56 bf 3c 63 9d 80 3d 64 e6 85 3c
       0.02847158 0.023356834 0.06280019 0.01634521
000270 51 3d f0 3c f7 02 a3 bd 46 f8 9e 3b eb 61 81 3d
       0.029326113 -0.0795955 0.004851374 0.063175045
000280 41 32 d5 3d d6 2e 7a 3d 3b fb d8 bd af de a1 3d
       0.10409976 0.061079822 -0.105947934 0.07903802
000290 7f c1 94 bc d5 e3 25 bd 76 88 0d be 56 6a dd bc
       -0.018158672 -0.04050048 -0.13821587 -0.027028244
0002a0 d8 35 ad 3d 74 3a 81 bb 67 bf 63 bd a2 41 c1 3c
       0.084575355 -0.0039437357 -0.055602457 0.023590866
0002b0 5c ce 82 bd a2 bf f8 3d 73 5a d9 bd 81 2a 6b bd
       -0.06387016 0.12145926 -0.10612955 -0.05741358
0002c0 d6 e6 c8 bd 55 51 af bd 96 93 dc 3c 35 5e dd 3d
       -0.098096535 -0.08560435 0.026925843 0.10808984
0002d0 8f 0a 0e 3d 0d 83 f5 3d 2b 10 d0 3c ef 89 7c 3d
       0.03467804 0.119878866 0.025398334 0.06165498
0002e0 e9 a7 ca 3d e6 d8 ec 3d f7 c6 b4 bd 6c f2 d7 3d
       0.098953076 0.115648076 -0.08827012 0.10544285
0002f0 9a 1f c1 3d c9 14 26 bd 11 78 87 bd 66 3b f7 bd
       0.09429856 -0.040547166 -0.06614698 -0.12071876
000300 59 02 8c bd 14 69 03 be 1f c6 85 3d ed d5 31 3b
       -0.06836385 -0.12833053 0.06531929 0.0027135566
000310 7c 60 09 be e2 4a 82 bc a1 ef 04 bd 91 08 ca 3c
       -0.13415712 -0.015904848 -0.03245509 0.024662288
000320 03 f9 15 3d 77 eb 42 be 3f 5b 1c 3e 9e 59 fa 3d
       0.03661443 -0.19035135 0.15269183 0.12224124
000330 09 95 86 3d e5 7b e7 bd 77 ae e5 bb 18 6f 39 bd
       0.06571395 -0.11302928 -0.007009323 -0.045271963
000340 0d 14 6f bc 45 b4 b8 3d 44 96 c9 3d 04 9c ee 3d
       -0.014592183 0.09018759 0.09843114 0.11650851
000350 87 15 99 bc d7 3c ab 3d ec 8a af 3c db 17 f8 bd
       -0.018687023 0.08361214 0.021428548 -0.12113925
000360 30 f1 a1 bd 5f 5a 8a bd 8f 31 7f 3d b1 11 2f be
       -0.07907331 -0.06755518 0.062303122 -0.17096592
000370 f6 33 a1 3c 72 e2 85 3b a7 c4 03 3d 96 d4 98 3d
       0.019678097 0.0040858323 0.032169964 0.074624225
000380 51 c1 77 bd 99 39 f4 bd 7f b8 0b 3e 1b e7 16 3e
       -0.060487095 -0.119250484 0.13644598 0.14736597
000390 22 ac 28 3e f8 96 fa 3c f9 a2 a3 3d be a8 03 3e
       0.16471913 0.030589566 0.07990069 0.12857339
0003a0 2e 79 b2 bd 49 7b 2e bd 65 ff 8a 3d 4c 0a 77 bd
       -0.087145194 -0.042598043 0.06786994 -0.060312554
0003b0 32 e5 1b bd 39 d5 95 3d 35 95 07 3d 43 7b 81 3d
       -0.038060375 0.073160596 0.03310128 0.063223384
0003c0 72 18 a4 bd b9 1c f0 3c ef 31 f8 3d 78 04 ad bd
       -0.08012475 0.029310571 0.12118899 -0.08448118
0003d0 03 02 4b bc 69 7f ea 3d 7b 5c dd bd 5b 36 0c 3e
       -0.012390616 0.11450083 -0.10808655 0.1369261
0003e0 17 bd 85 3c 19 5c ec bd a2 e4 87 3c 2d dc b3 bb
       0.016325517 -0.11541004 0.016588513 -0.0054888935
0003f0 9d 97 17 be 3a ba 2c 3d 1e 4e ff 3c 62 66 f3 bd
       -0.1480393 0.042169787 0.031165179 -0.11884762

lstm.bias_ih_l0 f4 [256]
000000 27 12 8f bd d1 0a e7 3d 02 47 8b bd 15 8f 2d bd
       -0.06985884 0.1128136 -0.06800653 -0.04237278
000010 cf ae a4 3a c0 84 01 bd 98 ca 2b bc c0 49 e7 3d
       0.0012564304 -0.03162074 -0.010485314 0.112933636
000020 1a 5f ff 3d cc 05 5f bd 6b 33 2e bd 53 45 02 be
       0.12469311 -0.054448888 -0.042529505 -0.12721758
000030 b3 5d f4 3d c4 42 22 bd 9b 56 a6 bc 01 df b7 bd
       0.11931934 -0.039614454 -0.020304969 -0.089780815
000040 bc 29 f5 3b 5e e1 5b 3d 68 58 01 3e 73 81 13 3e
       0.0074817818 0.053681724 0.1263138 0.1440485
000050 e3 19 11 3e 6c 51 ba bd f5 f9 44 3c d3 18 9c bd
       0.14170031 -0.09097561 0.012022485 -0.07621922
000060 96 6e 05 bb f7 67 65 3c 11 b7 9d 3d 00 af 33 bd
       -0.0020360104 0.014001838 0.07700933 -0.043868065
000070 e6 73 cf 3b 16 1a 0b bd 9d be bf 3d b8 a8 08 3c
       0.006330955 -0.033960424 0.093625285 0.008341007
000080 2b 1c dc 3d 99 be fe bd c6 30 15 3d ab 63 d3 3d
       0.1074756 -0.12438697 0.036423467 0.103217445
000090 af 0b f6 3d ef 11 de bd 72 44 e0 bc 90 79 2a bc
       0.12013947 -0.10843264 -0.027376387 -0.010404959
0000a0 72 6b d5 bc b3 4d ac 3d d1 64 eb 3d fa 9a 5d bc
       -0.02605221 0.084132574 0.114938386 -0.013525719
0000b0 d9 43 96 bc a8 92 0d 3d 9a 1f bb bd 96 7b 8d bd
       -0.0183429 0.03456369 -0.09136887 -0.06908338
0000c0 9a b2 a7 3c 94 67 95 bc 52 65 95 3d ed 79 b1 3d
       0.020470906 -0.018237866 0.07294716 0.086658336
0000d0 5a 66 85 3c 70 2d 28 3d 57 8b cf bc 3d 46 2e bd
       0.016284157 0.041058958 -0.025334997 -0.042547453
0000e0 26 90 09 3e 68 3e fc 3d b4 76 1c 3d d6 6c e6 bc
       0.13433895 0.123165905 0.03819914 -0.028128069
0000f0 db 80 bd bc 69 1d 9f 3d b6 52 6f 3d c7 99 42 bd
       -0.023132732 0.077692814 0.05842849 -0.047509935
000100 3e 1a d8 3d 34 b0 2f bc 4a a8 da 3c 94 d8 60 bd
       0.1055188 -0.010723162 0.026691575 -0.054894045
000110 14 04 ac 3c e0 6e 74 bd a2 4f 1a 3d b1 65 c6 bd
       0.020998038 -0.05967605 0.0376736 -0.09687365
000120 49 55 83 3c c6 0c 5d bd 51 f9 68 bd 83 73 f6 bd
       0.016031878 -0.05396726 -0.05687839 -0.12033751
000130 29 52 34 bc de 1f 31 3b 1a fa 70 3d 03 f3 d2 3c
       -0.011005917 0.002702705 0.058832265 0.025750643
000140 18 17 75 bd cd 0e 8a bd 0b 00 ac 3c 35 bb 42 bd
       -0.059836477 -0.06741104 0.020996114 -0.047541816
000150 2f 26 23 3c 95 49 21 3d 5b 2c 10 3d 78 3d d1 bd
       0.009957834 0.039376814 0.03519855 -0.10216802
000160 a9 3c 1c 3e 45 74 03 3e 22 f2 48 bd 32 44 bf bd
       0.15257515 0.12837322 -0.04905904 -0.09339179
000170 0d e7 c6 3d bb eb 3b 3d a4 b4 00 3d 18 dd 49 bd
       0.09712038 0.045879107 0.031422272 -0.049283117
000180 60 94 c1 3c 98 ab b0 bd ec aa 81 bd 73 05 40 3d
       0.023630321 -0.08626479 -0.06331429 0.046880197
000190 0c db f7 3c 1f a4 4e 3d b9 5d 22 3e a7 f6 a7 bc
       0.030255817 0.050449487 0.15856065 -0.020503355
0001a0 75 ab 96 3c bc b9 c9 3d 38 b7 93 bd d2 1f a2 3d
       0.018392304 0.09849879 -0.072126806 0.079162255
0001b0 2a ae f0 3d 2c 50 9a bd 4c 9f b8 3d 1f 85 8f bd
       0.11751969 -0.07534823 0.090147585 -0.07007813
0001c0 fc de 4d bd aa 29 cb 3d 5d 96 59 3d 86 e5 d2 3d
       -0.050261483 0.09920056 0.053121913 0.10297684
0001d0 b6 ca be bd f1 eb 98 3d 91 be d4 3c e9 c0 99 bd
       -0.09316008 0.07466877 0.025969775 -0.07507498
0001e0 ed be e0 3c b1 14 08 3e 6b f1 d6 3d 21 51 7d bb
       0.02743479 0.13289143 0.104952656 -0.0038653093
0001f0 b5 11 85 3c 79 5d 7b bd 64 1f c4 3d 56 db 60 3d
       0.016243795 -0.06136844 0.095763 0.054896675
000200 33 79 26 bd 5b 2e e5 bc b4 42 b9 bd 8c 94 ab bc
       -0.04064293 -0.027976206 -0.09045926 -0.020944856
000210 1e 82 82 3d 19 2a 18 be e2 9f 61 3c 86 26 ef 3d
       0.06372474 -0.14859809 0.013771029 0.1167727
000220 66 3e 48 3d 15 33 70 3d 83 6a 08 bd 88 78 ff bb
       0.048887633 0.058642466 -0.033304702 -0.007796351
000230 37 7f d4 bd f8 87 88 bc 78 90 c3 3c 82 36 5a 3d
       -0.10375827 -0.016666397 0.023872599 0.05327464
000240 48 2d 4c 3d c9 62 87 bd 7c cd 1b 3d 84 57 a8 bd
       0.04984787 -0.06610639 0.038037762 -0.08219817
000250 5a a5 c9 bd a7 c8 6e bc d3 db a8 bd d3 13 a7 3c
       -0.098459914 -0.014574206 -0.08245053 0.020395195
000260 21 39 fd 3c bc 4a be 3d ec 71 8d 3d c0 aa 57 ba
       0.03091103 0.09291598 0.069064945 -0.0008227043
000270 f9 77 b4 3d 76 aa 68 ba a0 cb 03 be f9 7b 69 bd
       0.088119455 -0.00088754983 -0.12870646 -0.057002995
000280 5b 17 cc bd a0 55 a7 bd 62 3e 5f 3d 81 06 03 3e
       -0.09965392 -0.081706285 0.054502852 0.1279545
000290 15 85 b2 3d 81 da 53 bd c6 14 5b 3d ba 21 af 3d
       0.0871679 -0.051722053 0.053486608 0.08551355
0002a0 06 10 60 3d cc 93 c0 bd 13 14 9e 3c fe 08 8f 3d
       0.05470278 -0.0940319 0.019296682 0.06984137
0002b0 5c ae e6 3c e5 77 dc 3d b6 72 dd 3d 0e 2f 81 bd
       0.028159313 0.107650556 0.10812895 -0.06307803
0002c0 d9 a4 a1 3d e8 02 af bd 94 de 80 bd 49 c9 ae 3d
       0.0789277 -0.08545476 -0.062924534 0.08534486
0002d0 a6 04 f6 3b 8f 26 bd 3d 7a 79 1d 3d 1f ad da bc
       0.0075078784 0.0923587 0.038445927 -0.026693879
0002e0 f0 ac f0 3d a0 ad bc bd 53 5f b5 3c 4f 62 28 3d
       0.11751735 -0.09212804 0.02214018 0.04110938
0002f0 e4 97 c1 3d 0b 86 a3 3d 03 be 17 3d 9c 08 34 bd
       0.09452799 0.07984551 0.037046444 -0.043953523
000300 53 c5 09 3e b7 ac bb 3d 7d 1e 57 3c 21 f5 cf 3d
       0.1345418 0.09163802 0.013129828 0.101541765
000310 60 b3 16 3d ae e4 2e bd d1 93 36 3d 99 26 a3 3c
       0.03679216 -0.042698555 0.044574562 0.019915866
000320 aa 29 9d bb d8 3f 88 3d 67 f6 4e 3d ff 5a b8 bd
       -0.0047962265 0.06652802 0.050527956 -0.09001731
000330 df a5 a2 bd 9a da 87 3c f8 ab 8f bc 17 93 82 bb
       -0.07941794 0.01658373 -0.017538056 -0.0039848196
000340 84 28 cb 3d 96 37 dd 3d fc 43 ed 3d 61 96 c9 3d
       0.09919837 0.10801618 0.115852326 0.098431356
000350 6a ea dd 3d e4 03 bb bd 0d 31 09 3e 9c 5f b9 bd
       0.108357266 -0.091316015 0.13397618 -0.09051439
000360 73 3a 3f bd 19 25 33 bd 83 e5 03 3e d7 29 a9 3d
       -0.0466866 -0.04373655 0.1288052 0.082599334
000370 36 2f dd 3d 10 54 96 3d 10 58 c3 bd 5a 6a e6 bd
       0.108000204 0.073402524 -0.09538281 -0.11250754
000380 3d 90 5b 3d 63 3d 31 bd 41 93 4e 3d b5 ec a6 bd
       0.053604353 -0.043271434 0.0504334 -0.08150617
000390 39 86 1f 3e 8a 9c e4 bd e7 f9 be 3d 76 e2 5d 3d
       0.15578546 -0.1116267 0.09325009 0.054171048
0003a0 30 bf bf bd 46 ae 00 3e b4 96 97 3d 2d 36 7b bd
       -0.09362638 0.1256648 0.07401791 -0.061330963
0003b0 10 da 3d bd e5 a6 81 3d bd b4 21 bd bf 90 5c bb
       -0.04635054 0.06330661 -0.039479006 -0.0033655611
0003c0 96 fd 85 3d d9 e6 79 3d 51 ca 86 bd 35 ea 49 3e
       0.06542508 0.06101117 -0.065815575 0.19718249
0003d0 81 26 1b 3d 23 32 42 3d 8b 78 92 bd 89 55 63 3d
       0.037878517 0.047411095 -0.07151898 0.055501495
0003e0 76 e1 1e 3d 6c 93 0a 3e e1 1a e4 3d 32 b9 0c 3e
       0.038789235 0.135328 0.11137939 0.13742521
0003f0 c0 fc 9c bb c5 90 92 3d 7f c7 a6 3d 8f 54 a0 3c
       -0.0047908723 0.07156519 0.081435196 0.01957157

lstm.bias_hh_l0 f4 [256]
000000 44 ec eb 3c c7 82 a2 bd 22 9a 24 bd b2 ac a9 3d
       0.028799184 -0.079351 -0.040186055 0.08284892
000010 a7 15 63 bd fb 24 bd bd a1 61 8a 3d de 94 32 bd
       -0.05544057 -0.09235569 0.067569025 -0.043599002
000020 78 2f 86 bd dd 27 ad 3d 4c 73 02 3e c9 12 f2 bd
       -0.06552023 0.08454869 0.12739295 -0.11819989
000030 96 19 00 3d 11 80 f7 bd db 23 c1 3d 3c 21 7a 3d
       0.0312744 -0.120849736 0.09430667 0.06106685
000040 25 03 08 3d c5 58 0f 3e b1 78 f8 3c 59 36 d7 bb
       0.033206124 0.13998707 0.030330988 -0.006567758
000050 5a da 83 3d fb be f4 3c 03 80 18 bd b9 d7 a1 bd
       0.06438132 0.029876223 -0.037231456 -0.07902474
000060 77 16 a4 3b 6f ff 7e 3d 62 ad 74 3d 94 93 30 bd
       0.005007561 0.06225532 0.059735663 -0.04310949
000070 89 e8 3a 3e 68 ff bf bd 77 d2 e0 3c 94 f7 10 3d
       0.18252768 -0.09374887 0.027444107 0.03539236
000080 43 1f 9c bd 37 ae d0 3d 30 46 90 bd 9b 19 a9 3d
       -0.0762315 0.10189479 -0.07044637 0.08256837
000090 b2 32 3e 3d 90 06 8f bd e2 0d 31 3e e2 57 d6 bc
       0.046435066 -0.069836736 0.17290452 -0.026164953
0000a0 a5 03 90 bb 3f 4b 02 3e 29 7a d6 bd 57 25 c3 3d
       -0.0043949657 0.12724017 -0.10472519 0.095286064
0000b0 a3 5b 31 bd 5a 48 0a be 93 76 72 3d b0 0b 4e bd
       -0.043300282 -0.13504162 0.059195112 -0.050304115
0000c0 47 e5 c1 bd 50 8f 6f bd 36 22 a0 3d 51 35 2a 3e
       -0.09467559 -0.058486283 0.07819025 0.16621901
0000d0 75 41 4d bb 82 d7 8e 3d 1a d4 26 3c 42 80 c4 bd
       -0.0031319533 0.069746986 0.010182405 -0.09594776
0000e0 42 e6 a4 3d 06 ef 11 3e 2a a6 3a 3d df 17 1a 3d
       0.08051731 0.14251336 0.045568623 0.03762042
0000f0 7f f9 0f 3e c3 56 36 bd b3 77 d0 3d 57 54 d2 3d
       0.14060019 -0.044516336 0.10179081 0.10269993
000100 3c 8f 0d 3e 7a 6c 18 3d af ee 8b 3d 2c b1 13 3d
       0.13824171 0.037212826 0.06832635 0.036057636
000110 c1 22 c7 bd e1 02 aa bd df d9 82 bd 5f 8e 6c 3b
       -0.09723426 -0.0830133 -0.06389212 0.0036095602
000120 89 d3 1f bd e6 9c 66 3b 73 ad d3 bc 27 c9 b2 bd
       -0.039020095 0.0035188734 -0.025839543 -0.08729773
000130 49 b5 4a 3d fe 96 cf 3d 74 22 a1 bb 5e b3 b0 bd
       0.049489293 0.10136221 -0.004917437 -0.086279616
000140 0d 54 45 bd 2e 5d 02 bd 59 ec 96 bd 97 d0 1f 3e
       -0.04817586 -0.031827144 -0.073692985 0.15606914
000150 f7 33 e2 3d a8 bd d8 3d 71 db 3f bd 20 fb 91 bd
       0.11045068 0.10583049 -0.046840135 -0.071279764
000160 82 60 1d 3e c2 f9 60 bd e0 e3 c8 bd 76 75 ba bd
       0.15368846 -0.054925688 -0.09809089 -0.09104435
000170 49 71 ef 3d 9a 77 82 3a c0 25 3b bc 48 a9 ea 3d
       0.11691529 0.0009953857 -0.0114225745 0.11458069
000180 18 ae 61 bd 6c 3e 06 bb 21 0f 84 3d 23 9e 88 3d
       -0.05509767 -0.0020483984 0.06448198 0.06670787
000190 4c 4b f7 3d 2e 86 7d bc 31 32 f0 3d e3 41 ef bc
       0.120749086 -0.015473885 0.11728323 -0.029206222
0001a0 d2 32 fa bb 31 61 83 bd 51 fc aa 3d 72 64 c7 3c
       -0.007635453 -0.06415022 0.08348907 0.024339888
0001b0 5d 0f 69 3d fe 53 18 bd ef 43 30 3d c0 b5 08 be
       0.056899417 -0.037189476 0.043033537 -0.13350582
0001c0 f6 6d e4 3d 00 72 dc 3d 9f 65 7e 3d 57 01 dc 3d
       0.11153786 0.10763931 0.062108632 0.10742443
0001d0 14 72 e3 bd a2 cf f9 bc 81 56 d7 bd d0 28 77 bd
       -0.11105743 -0.030494515 -0.10514546 -0.060341656
0001e0 f9 84 05 3e ca b2 e6 3c d6 f1 34 3e b5 0b 1a bc
       0.13039006 0.028161425 0.17670378 -0.009402205
0001f0 22 72 26 bd 07 60 f0 bd 7a 4d 79 3d 8e 12 2e 3d
       -0.04063619 -0.11737066 0.060864903 0.042498164
000200 d8 e3 27 3d e1 1f c2 3d 92 1e 9b 3d cb 03 dd bd
       0.040988773 0.09478737 0.0757419 -0.10791739
000210 35 a6 c5 3b 9f 82 a4 3d cf 2f ae 3d 43 4e 3d 3d
       0.0060317763 0.080327265 0.085052125 0.046217214
000220 e2 45 82 bd d7 10 df bd f1 d4 f7 3d c0 6e 1c bd
       -0.06360985 -0.10891884 0.12101162 -0.038191557
000230 f5 37 3b 3d ff 81 24 3c c9 c1 4b bd 4e bf 61 3d
       0.04570766 0.010040759 -0.049745355 0.055114083
000240 ab f9 bb 3d 7f dd cf bc b1 8e 66 3d 95 31 18 3d
       0.0917848 -0.025374172 0.056288425 0.03715666
000250 7e 17 d7 bc fb 85 6e 3d dd 9b 34 3d dd c6 dd 3d
       -0.02625632 0.058233242 0.044093955 0.10828946
000260 11 4a 13 bd 40 e7 de 3d 5a 55 8c bb 89 89 c5 3c
       -0.035959307 0.10883951 -0.0042826356 0.024113433
000270 bb bc 7b bd 4c 9a 37 3d ac 3e c2 3d 9a bb f4 3c
       -0.061459284 0.044824883 0.0948461 0.029874612
000280 bc 4d cc 3b 25 a0 bf 3c 9e dd 8d bd 83 07 c8 bd
       0.0062348526 0.023391793 -0.06927036 -0.09767058
000290 67 f2 bf 3d 44 94 e7 bd 89 55 69 bb 08 d8 9d bd
       0.093724065 -0.11307576 -0.0035603961 -0.0770722
0002a0 0c 47 b4 bd d6 b8 37 bd 79 17 42 3b 38 a7 a6 bd
       -0.088026136 -0.044854008 0.0029616042 -0.08137363
0002b0 63 7c b4 bd 05 d5 db bd 33 67 38 ba 97 47 d9 bc
       -0.088127874 -0.107339896 -0.0007034421 -0.026523395
0002c0 6f 24 9b 3d 68 f6 be bd 05 25 cf bd a9 73 61 bb
       0.075753085 -0.09324342 -0.10114483 -0.0034401214
0002d0 84 cc 03 3e 85 3e c9 3d 78 5b 55 bd b0 d2 0b bd
       0.12870985 0.09826378 -0.052089185 -0.034136474
0002e0 37 0f 7a 3c b6 9d 39 3b 07 95 2d 3c fd 4d 58 bd
       0.015262417 0.0028322763 0.010594613 -0.05280875
0002f0 3b d1 17 bc 00 ca 96 bc 7b 06 50 3d c6 6c 89 bd
       -0.009266193 -0.018406868 0.05078743 -0.067102
000300 08 f6 0c 3c dd f8 8b 3d 08 72 c8 3d 06 da a2 3d
       0.00860358 0.06834576 0.09787375 0.07951741
000310 70 2d 5c bc 2d e0 59 bb ac db 16 bd 65 bf 00 3e
       -0.0134385675 -0.0033245191 -0.03683059 0.12573011
000320 d8 be cf 3d c6 ed 83 bd 06 89 e5 3d b7 d5 f2 3d
       0.101438224 -0.06441836 0.11207776 0.11857169
000330 73 cc 3a 3d 07 37 fd bd f0 70 e4 3d 77 59 b7 b9
       0.045605134 -0.12364011 0.111543536 -0.00034971136
000340 8b 34 37 bd 4e 15 90 3d 52 e6 12 3e 98 70 b5 3d
       -0.044727843 0.070353135 0.14345673 0.08859366
000350 9c 46 99 bd 30 02 37 3d f6 9c 73 bd 1a b8 eb bd
       -0.07484171 0.04467982 -0.05947586 -0.11509724
000360 aa c7 e2 bc e7 f5 95 3d bd 66 d2 3d d4 df 4a 3d
       -0.027683098 0.07322293 0.10273502 0.049529865
000370 68 64 19 3e 64 5b f2 bd 24 02 17 bd 44 50 84 bd
       0.14979708 -0.11833838 -0.036867276 -0.06460622
000380 75 79 bb bd df 7a b2 bd b0 02 ca bd 85 29 c7 bd
       -0.091540255 -0.08714842 -0.09863794 -0.09724716
000390 fd 0a 64 3d 6a 37 79 bd 83 26 0e 3d c9 d4 01 bd
       0.05567454 -0.060843863 0.034704696 -0.03169707
0003a0 ac 7b 93 bc 72 62 c9 bd 64 c6 bf bd d4 30 f0 bd
       -0.018003307 -0.0983323 -0.09364012 -0.11728063
0003b0 57 0c c7 3d 20 22 e7 bc 5c b0 eb bd bf 81 74 bd
       0.097191505 -0.028214514 -0.11508247 -0.059694048
0003c0 e2 27 e0 3b f9 ea a3 bd a9 83 c8 3d 23 6a 45 3e
       0.006840692 -0.08003802 0.09790737 0.19278769
0003d0 36 e1 f5 3c a2 44 6b bc 89 c2 72 3d 66 95 02 3d
       0.030014616 -0.014359625 0.059267554 0.03188076
0003e0 76 04 85 3d b4 5d 7e 3d 0f f6 7b bd 37 bf a8 3d
       0.064949915 0.06210108 -0.061513957 0.08239596
0003f0 5e d5 6c 3d ad 1f 8a 3d 94 7b 36 3d 55 2b c9 3d
       0.05782067 0.06744323 0.044551447 0.09822718

fc.0.weight f4 [32, 64]
000000 f2 79 13 bc 33 d5 f5 3c 44 d3 f5 bd e2 2b ef 3d
       -0.009001242 0.030008888 -0.12003186 0.11678292
000010 7a 62 f9 3c dc 78 ae bd 0d b1 e1 3d e7 51 69 3d
       0.030442465 -0.08519146 0.11020098 0.056962874
000020 09 fd 25 3c e2 0c 3c 3e f2 32 0f be 86 8a 9c bd
       0.010131129 0.1836429 -0.13984278 -0.07643609
000030 82 00 91 bd fa 3e 47 bc 76 c7 15 be a5 58 85 3c
       -0.07080175 -0.012161011 -0.1462687 0.01627762
000040 2b c7 c5 bd 4c 1b ca bd 62 17 09 be ed 62 14 bd
       -0.09657129 -0.09868488 -0.13387826 -0.036227155
000050 5b aa 58 bc 5b ea ef 3c b9 3f 09 3c cf 00 16 bc
       -0.01322421 0.029286554 0.008377009 -0.009155466
000060 33 34 49 bd 86 21 a0 bd f2 7e ef bd 90 15 39 bd
       -0.049122047 -0.07818894 -0.11694135 -0.04518658
000070 32 c3 1d be 92 4e 1e 3d fb 1c 1b 3e 56 68 e5 3d
       -0.15406492 0.03864915 0.15147774 0.11201541
000080 63 9c de bd 78 66 e4 3d 9e b3 d0 3d 10 41 78 bd
       -0.10869672 0.11152357 0.10190509 -0.060608923
000090 3e e8 aa bd f5 6b 08 be bc 79 8d bd b0 5c fa bc
       -0.08345078 -0.13322432 -0.069079846 -0.030561775
0000a0 20 70 51 3c f6 89 16 be 3c fd e7 3c 2c 99 b9 bb
       0.01278308 -0.14701065 0.028318994 -0.0056640115
0000b0 88 93 95 bd c8 22 82 bb ee 03 d7 3d 0e ad 31 3d
       -0.0730353 -0.0039714314 0.104987964 0.04337793
0000c0 37 5a 92 bd 3a e4 91 bd 2a 6c 44 3d 94 bb f5 ba
       -0.07146113 -0.07123609 0.047954716 -0.0018747919
0000d0 10 ae a1 bd 60 ae ba bd c1 6d 03 bd f4 62 f9 bc
       -0.07894528 -0.09115291 -0.03208709 -0.030442692
0000e0 e6 1b 3a bd 40 d1 a0 3d f1 4b 00 be fa 18 d1 bd
       -0.045436762 0.07852411 -0.1252897 -0.10209842
0000f0 01 31 d1 3d f1 02 81 bd f2 83 12 bb 1f 87 01 be
       0.10214425 -0.06299389 -0.0022356478 -0.12649201
000100 89 f1 ca bd c7 4d 20 3d 56 f4 07 3a b3 72 ea 3d
       -0.099093504 0.039136674 0.000518625 0.114476584
000110 89 ed ec 3d 8d 9c e0 bd 81 c3 95 bd 24 48 a7 3c
       0.11568744 -0.1096736 -0.0731268 0.020420142
000120 6b 88 c1 bc 95 67 f7 bd 65 5d 8a bd ec 4d 76 bd
       -0.02362462 -0.120803036 -0.06756095 -0.060132906
000130 a5 02 a5 3c 71 01 64 3d cb e2 ad 3d 20 17 c6 3d
       0.020142863 0.055665437 0.08490523 0.096723795
000140 b7 6f 77 bd 80 a4 d1 3d 32 1b 82 bd cb c5 c8 bd
       -0.060409274 0.10236454 -0.06352843 -0.09803351
000150 f3 bf 38 bd a4 c0 40 3d f7 a9 54 3c 30 81 ec bd
       -0.045104932 0.047058716 0.012979976 -0.11548078
000160 99 f5 22 3d 32 b2 5a bc b7 9d aa 3d 94 b7 9e bd
       0.039785 -0.013348149 0.08330863 -0.077498585
000170 cd d1 e7 bd fd 63 85 bc dc 9d 69 bd 38 cb e4 bc
       -0.11319313 -0.01628303 -0.057035312 -0.027928934
000180 d1 1a d3 bc 27 f4 fd 3d 36 15 08 bc a6 0d e7 bd
       -0.025769623 0.12400084 -0.008305838 -0.112819
000190 fa 3b 90 bd 27 c7 6c 3b 18 aa 9e 3d 58 fe 18 3d
       -0.070426896 0.0036129446 0.077472866 0.037351936
0001a0 c3 27 0a be 5e 0f d5 3c 49 87 a8 3d a8 bb 03 bd
       -0.1349173 0.026008304 0.082289286 -0.032161385
0001b0 29 64 85 3d df fc e1 3d d4 1f c5 3d 9f 4a dc 3c
       0.06513245 0.110345595 0.09625211 0.02689105
0001c0 d8 9b 02 be 36 1e c4 bd 57 27 cd 3d 20 4d 57 bd
       -0.12754762 -0.09576075 0.10017269 -0.052563787
0001d0 e7 79 cc 3d 9c 64 94 3d 59 df d5 bd 54 51 83 3d
       0.099841885 0.07245752 -0.10442991 0.064119965
0001e0 8d 7f ca bd 98 ef c7 bd 57 60 c5 3d 14 f5 fd 3d
       -0.0988761 -0.09762496 0.09637516 0.124002606
0001f0 39 04 56 3d 40 36 4f 3d ad 60 39 3c d7 82 b1 3d
       0.05225012 0.050588846 0.011314553 0.08667534
000200 66 c2 f8 bd 6b 27 66 3d 01 2d a6 3c dc a8 04 bd
       -0.121464536 0.056189936 0.020285131 -0.0323876
000210 09 1b a0 bd 86 18 2c 3d dd 8c 05 bd c2 c3 06 3c
       -0.078176565 0.042015575 -0.03260504 0.008225383
000220 87 10 fc bc 51 48 0a 3a d9 d2 20 bd 71 54 e8 bd
       -0.0307696 0.0005275058 -0.03926358 -0.11344231
000230 56 97 10 3d ef c7 b1 bc f8 19 2c bd 6c 3f 9e 3d
       0.035300575 -0.021701781 -0.042016953 0.077269405
000240 55 db 5a bd cd aa 3c bc 5c d8 f2 bd d2 e9 2b bd
       -0.053431828 -0.011515331 -0.118576735 -0.041971035
000250 05 67 c0 3d 77 ac d9 3a e1 78 82 3d 23 1d cb 3d
       0.093946494 0.0016607185 0.06370712 0.09917667
000260 ff 99 1a 3d f8 59 b1 3d 25 7d cb 3c f3 d6 8f 3d
       0.03774452 0.08659738 0.024839947 0.0702342
000270 b4 21 e6 bd 29 8c c6 3d 2d 7e 17 3d 9b 04 63 3c
       -0.11236897 0.09694702 0.036985565 0.0138560785
000280 58 17 f3 bd 99 28 9b 3d d1 8e 80 3d 3b 15 ca bd
       -0.11869687 0.07576103 0.0627724 -0.09867331
000290 81 29 e5 3d a0 89 f8 3d 8d df f1 bb 49 8d 0c bd
       0.11189557 0.12135625 -0.0073813857 -0.034314428
0002a0 42 a4 98 bb af ac cc bd 7f 8e ef bd 2c cd 4d bc
       -0.004658253 -0.09993874 -0.11697101 -0.012561124
0002b0 a9 ca 1a bd fa 5c ee 3d ea 74 8d 3d 86 c0 f1 bc
       -0.037790928 0.116388276 0.06907065 -0.029510748
0002c0 75 d7 f9 bd 6d 50 09 3d c2 2f a5 bb c0 8f 8d bd
       -0.12199298 0.033523966 -0.0050410936 -0.06912184
0002d0 89 37 d8 3d 8a 95 95 3d 7d 78 2e bd ed b2 e4 3d
       0.105574675 0.07303913 -0.042595375 0.1116694
0002e0 c0 23 da bd 8a 01 df bd d5 f4 6f 3d 8e b3 90 3d
       -0.1065135 -0.108889654 0.0585831 0.07065497
0002f0 8a e8 fb bc 33 1e ee bc 38 44 ef bd ca 9b 41 3d
       -0.030750532 -0.029067134 -0.116829336 0.047267713
000300 bc a0 d5 bb a2 c2 c8 bd 19 4b bc bd 5f 23 9f 3d
       -0.006519405 -0.09802748 -0.09194011 0.077704184
000310 44 6d de bd 13 58 c4 3c 84 92 e1 3d fe d2 26 bd
       -0.108606845 0.023967778 0.11014274 -0.04072856
000320 9f 8a 88 3d 36 0e 55 3d 68 aa c7 bc 23 fe 94 bd
       0.06667065 0.052015506 -0.024373248 -0.07275035
000330 55 b0 90 bd a2 0f 02 be f9 ec b3 3c d3 64 c8 3c
       -0.07064883 -0.12701276 0.021963583 0.02446214
000340 eb aa e1 bc 88 82 91 3d 9e e7 a1 bb e3 8c 3a 3d
       -0.02754732 0.07104975 -0.004940941 0.045544516
000350 af a3 00 3e 86 34 e3 3d 45 7b c4 3d 39 96 64 bd
       0.1256244 0.110940024 0.09593824 -0.055807326
000360 e3 86 d9 3b 2b e5 2b bd 75 ea 01 3d be a0 8e 3d
       0.006638394 -0.0419666 0.031717736 0.06964253
000370 74 a7 86 3c f3 85 3b bd e4 3f 8b 3c e9 41 c5 bd
       0.01643727 -0.04578204 0.016998239 -0.09631712
000380 e6 34 d7 bd c4 27 ce bc 4a 91 8f bb 30 ac b5 bc
       -0.105081365 -0.025165446 -0.0043813335 -0.022176832
000390 04 c2 74 3d ea 15 32 3d 27 67 09 3d 34 26 11 3d
       0.05975534 0.04347793 0.03354564 0.035436824
0003a0 5f e7 45 bc 1b 5e e1 3c 54 31 b7 bd dc c0 9a bd
       -0.012079089 0.027510693 -0.089449555 -0.07556316
0003b0 1c b5 9b 3c 36 a0 a8 3d f9 6a 93 3a 7b 65 f2 3d
       0.019007258 0.08233683 0.001124709 0.11835762
0003c0 f2 84 c5 3d f3 5d f1 bd b5 70 5a bd ca be 1d 3d
       0.09644498 -0.117854975 -0.053330142 0.03851203
0003d0 e7 dd 25 bc fc 14 02 3d 56 f3 81 bd a7 ea 90 3d
       -0.010123706 0.031758294 -0.06345241 0.070760064
0003e0 90 b5 8c bd 0d 1e a2 3b bb 76 c5 bd f9 ea 05 bd
       -0.06870568 0.00494743 -0.09641787 -0.03269479
0003f0 37 fd 9a 3d 88 69 78 3d df 89 ae bd dd 9d 9b 3d
       0.07567828 0.060647517 -0.085223906 0.075984694

fc.0.bias f4 [32]
000000 d1 3a 5a 3d 53 a9 16 bc 7a 98 b4 bd e7 c9 c3 bd
       0.053278748 -0.0091956435 -0.08818145 -0.09559994
000010 a8 c7 99 bc 9d 0e 68 3d e1 3f 6b 3c dd 50 d2 ba
       -0.018771961 0.05665456 0.014358492 -0.0016045828
000020 ed 73 9e bd 04 29 66 bd 18 02 8d bc b1 a7 29 3e
       -0.07736955 -0.05619146 -0.017212912 0.16567875
000030 8f d0 ff bd f3 83 87 3d 38 ee 53 3d 1c 5e f9 bd
       -0.12490951 0.06616964 0.051740855 -0.12176153
000040 58 52 87 3d b8 4d f1 3c 1f 59 80 3d 70 1d 8e bd
       0.06607503 0.029456005 0.062669985 -0.069392085
000050 34 ef bb 3d 2d 5d a9 bd 0c be 5e bd 76 03 a6 3c
       0.09176484 -0.08269725 -0.05438046 0.020265322
000060 f9 f6 29 bd a2 fa 88 3d ca 86 a1 bc 74 e3 b7 bd
       -0.041495297 0.066884294 -0.019717593 -0.0897893
000070 aa 56 d5 bd 8c 5a 09 bc 50 7e c7 bd f8 9d b8 3d
       -0.104169205 -0.008383404 -0.09740889 0.09014505

fc.2.weight f4 [1, 32]
000000 34 19 40 3e 30 3a c0 3d a9 81 0b be bd 21 03 bd
       0.18759614 0.093860984 -0.1362368 -0.032014597
000010 07 8f 05 3e 3e 43 8f 3d 1c 73 5a 3d f9 ac a0 39
       0.13042842 0.06995247 0.053332433 0.00030646453
000020 03 ed b3 bd 68 5a 66 bd 25 09 d3 3d 4a 98 62 be
       -0.08785441 -0.056238562 0.103044786 -0.22128406
000030 24 a5 1b bd 27 94 ef 3d fb ac 8e bd 38 6e ae ba
       -0.037999287 0.1169818 -0.06966587 -0.0013307994
000040 df 0f 35 3e f9 76 10 3d 73 31 dd 3d 0a 9d b2 bd
       0.17681836 0.03526971 0.10800447 -0.08721359
000050 05 a6 ec 3d 03 24 b2 bd 6f 33 31 3e 1c 35 03 bd
       0.11555103 -0.08698275 0.17304777 -0.03203307
000060 5c 59 ea bd 00 72 ac bc ad 4d 34 3e 82 9a 64 3e
       -0.11442825 -0.021050453 0.17607756 0.22324565
000070 0d cd 4c 3c 15 c1 df 3d 90 96 71 bd ea c8 e7 3b
       0.01250006 0.10925499 -0.05898148 0.0070735114
